deepfit_classifier.tflite (tflite, 23068 bytes, 8 tensors)

sequential/dense_3/BiasAdd/ReadVariableOp/resource f4 [10]
000000 33 8b 0e 40 d9 0a 5d 40 77 25 51 40 2f 74 0c c1
       2.227246 3.453787 3.2679117 -8.778365
000010 63 cb ad c0 1b 13 08 c0 2d 08 bb 3f 94 16 9e 3f
       -5.4310775 -2.126166 1.461187 1.235064
000020 59 5e 2c c0 65 ad f8 bf
       -2.6932585 -1.9427916

sequential/dense_2/BiasAdd/ReadVariableOp/resource f4 [16]
000000 fe b7 fb bf 5d 36 3d c0 64 51 fc bf d8 c4 d7 bf
       -1.9665525 -2.956443 -1.9712338 -1.6856947
000010 52 dc 5e c0 d0 74 5a c0 45 e2 43 c0 54 30 0f c0
       -3.4821973 -3.4133797 -3.0606854 -2.2373247
000020 6b 96 29 c0 f3 32 32 c0 a8 2c 1e c0 af 31 17 c0
       -2.6498058 -2.7843597 -2.4714756 -2.3624074
000030 6f d5 83 c0 89 f3 31 c0 2a a6 1d c0 1f 7c 1f c0
       -4.119804 -2.7804892 -2.4632668 -2.4919508

sequential/dense_1/BiasAdd/ReadVariableOp/resource f4 [32]
000000 b2 e7 29 c1 c6 ea 1c c0 10 d6 27 c0 f9 9a 51 c0
       -10.619066 -2.4518294 -2.6224403 -3.2750838
000010 73 5f 33 c1 66 0e 37 c1 a8 73 47 c0 21 61 22 c0
       -11.210803 -11.441015 -3.116434 -2.5371783
000020 d2 0e 2a be 19 01 1b c0 10 bb 24 c0 8e 7b 2d c0
       -0.16607216 -2.421942 -2.5739174 -2.7106662
000030 f8 e3 24 c1 ce b1 68 c0 92 ab 24 c0 d7 e2 2e c0
       -10.305656 -3.6358523 -2.5729718 -2.7325952
000040 17 a2 a4 be 46 1e 29 c1 c9 f2 59 c0 a8 42 38 c1
       -0.32154915 -10.569891 -3.4054434 -11.5162735
000050 94 28 47 c0 b1 5a 25 c0 2a a9 1c c0 e9 70 28 c1
       -3.1118517 -2.5836604 -2.447825 -10.527566
000060 92 d1 22 c0 37 da 55 bf 4a af 2a c0 67 55 1a c0
       -2.5440412 -0.83536094 -2.6669488 -2.4114625
000070 fa d3 53 c0 fa 19 18 c0 5b c8 41 c0 56 fa 19 c0
       -3.309813 -2.3765855 -3.0278537 -2.4059043

sequential/dense/BiasAdd/ReadVariableOp/resource f4 [64]
000000 92 78 21 c0 3b b0 3a c0 1d 73 81 be 48 19 2a c0
       -2.522984 -2.9170063 -0.25283137 -2.657793
000010 7e 95 96 be f4 6c 61 3f 5f 81 4e 3f bc b9 6d 40
       -0.29410928 0.88056874 0.80666155 3.7144613
000020 c0 69 3d bf 2c de 94 bf 70 e6 84 3f ff 7d 2a 3f
       -0.73989487 -1.1630301 1.0382824 0.66598505
000030 1e 12 1c c0 a5 f6 91 3f 89 74 69 c0 fb 6e 95 c0
       -2.4386058 1.1403395 -3.6477377 -4.6697974
000040 12 a5 b3 40 7a 3b ad c0 80 6e cc 3f c0 60 5e c0
       5.6139 -5.4135103 1.5971222 -3.4746552
000050 f4 94 7c c0 68 82 e0 3e 39 35 59 c0 05 2f ba c0
       -3.9465914 0.43849492 -3.3938735 -5.8182397
000060 d0 9a cc 3f ed 34 05 c0 4c 25 b3 bf dd 0b 7a c0
       1.5984745 -2.0813553 -1.3995757 -3.906974
000070 d0 04 4f c0 8e da 07 40 7a e8 31 c0 0e 3c bb bf
       -3.2346687 2.1227145 -2.7798142 -1.4627702
000080 d8 63 99 3e ba 62 09 40 7d 82 53 40 7b f1 85 c0
       0.29958987 2.1466508 3.3048394 -4.1857276
000090 fa d1 91 bf e0 9f 54 c0 88 3e 20 3f 75 b9 6a c0
       -1.1392205 -3.322258 0.62595415 -3.6675694
0000a0 aa e7 77 bf 59 77 ae bf d1 ba 4e c0 6f 6e 93 3e
       -0.96837866 -1.3630172 -3.2301524 0.28795192
0000b0 d6 3c 09 40 25 91 ea bf 8e d1 a0 40 a0 ef b1 3f
       2.1443381 -1.8325545 5.0255804 1.3901253
0000c0 d5 e1 99 bf 53 a7 9e 3f 39 d3 18 bf 27 ed a0 c0
       -1.2022043 1.2394813 -0.596973 -5.0289493
0000d0 b8 94 28 c0 f9 d1 b8 be 47 71 74 3d 10 52 59 bf
       -2.634077 -0.36097696 0.059678342 -0.8489084
0000e0 cb ab b0 3f 5b 06 82 40 4a 8e 9e c0 47 6d 5c c0
       1.3802427 4.063276 -4.9548693 -3.4441698
0000f0 dc 4d 9c 40 42 20 9d bf ea af 4d 3e f8 c6 bc 3f
       4.8845043 -1.2275469 0.20086637 1.474822

sequential/dense/MatMul f4 [64, 36]
000000 ce 33 a0 40 cc 9f 2a c0 ba ad 4a 41 df 4d 91 c0
       5.006324 -2.6660032 12.667414 -4.5407557
000010 4b 36 2a c2 3b 3e 04 c1 b6 38 26 40 db de 02 42
       -42.55302 -8.265193 2.5972114 32.717632
000020 e3 c6 90 c0 d6 86 8a 40 d0 ba dc c0 4e 2d 32 c1
       -4.524278 4.3289595 -6.8978043 -11.136061
000030 28 30 34 c0 bf e9 81 bf 8f 37 e0 40 1a ad a7 3f
       -2.8154392 -1.0149459 7.006782 1.3099701
000040 36 a3 46 41 b1 cf c6 c0 97 f3 a1 40 34 8f 45 40
       12.414846 -6.212853 5.060985 3.0868654
000050 d3 6d e2 40 87 d8 74 c0 e1 b4 14 c1 9c 2b 3e 40
       7.0759063 -3.8257158 -9.29416 2.9714117
000060 56 7f d7 c0 f0 2d 1d c1 54 d2 04 c0 da 2d 13 3f
       -6.734294 -9.823715 -2.0753374 0.5749184
000070 fb 0a be c0 c7 f1 09 c1 9f 3c 35 41 9b 58 e9 c0
       -5.9388404 -8.621528 11.3273 -7.292066
000080 c3 03 c5 40 ce 5d 6a 40 99 78 c6 40 ee c0 d0 40
       6.156709 3.6619754 6.2022214 6.523551
000090 1c f5 fe bd d7 ee b0 c0 4c c6 de 3f e8 ad 4f 41
       -0.12449095 -5.5291553 1.7404265 12.979958
0000a0 76 89 cb c1 8c 0e ab c0 b2 a7 03 40 29 9b 98 41
       -25.44212 -5.3455257 2.0571103 19.075762
0000b0 1c af b3 3f c2 19 2e c1 7a 4a 56 41 db c2 f8 bf
       1.4037814 -10.881289 13.393183 -1.9434465
0000c0 72 06 77 40 73 d7 a2 c0 f9 5d a5 bf dd 2b 79 c0
       3.8597684 -5.0888 -1.2919303 -3.8933022
0000d0 6c c0 71 c1 56 c9 e0 bd 73 26 7a c0 32 61 40 40
       -15.109478 -0.10975902 -3.9085968 3.0059323
0000e0 5a c9 c5 40 ca 51 c9 c0 7e ee 16 41 99 c1 60 40
       6.180829 -6.291234 9.433226 3.5118163
0000f0 53 c2 cb c0 48 66 f4 40 c0 d9 73 41 c0 d3 f8 c1
       -6.367471 7.6374855 15.240662 -31.103394
000100 9f 90 53 40 bb e1 a5 40 8a 7e bb c1 75 36 90 40
       3.305702 5.183805 -23.436787 4.5066476
000110 a7 f5 42 c0 c8 11 9b c0 91 b3 9c 40 86 33 09 40
       -3.0462434 -4.8459206 4.8969197 2.1437697
000120 c5 b0 ce c0 19 bc 1f bf a3 a9 09 c1 9c 89 41 40
       -6.4590783 -0.6239639 -8.603915 3.024024
000130 e4 94 ad 41 b1 fc d6 3d 7e 0c 80 c0 17 ca a8 c1
       21.6977 0.10497416 -4.001525 -21.098677
000140 21 dd d5 bf 0a f7 3e 40 e6 f1 83 40 7d 78 92 3f
       -1.6708108 2.983828 4.1232786 1.144302
000150 bf 56 1c 3f 0f 00 f3 c0 f8 a0 f0 3f 8f 9c 8e c0
       0.61069864 -7.593757 1.8799124 -4.456611
000160 44 4d b3 c0 07 37 c5 40 6f 1d e1 3f f2 cc 03 41
       -5.603182 6.162967 1.7587107 8.237535
000170 36 f5 90 40 d6 2a 2e c1 d5 a8 e3 c0 cd 44 1a 41
       4.529933 -10.885458 -7.1143594 9.641797
000180 32 f3 12 c1 1c 2a 8d c0 6b f0 0d 41 c6 65 aa c1
       -9.184374 -4.4113903 8.871196 -21.299694
000190 c1 5e b2 40 08 43 57 41 ed 1a da c1 af 7a 04 41
       5.5740666 13.453865 -27.263147 8.279952
0001a0 b1 8b 3c 40 d4 ad ea 40 6c ee 7b 40 81 1d 91 40
       2.946026 7.3337193 3.936427 4.5348516
0001b0 ce f0 7f c0 c2 f4 1d 3f 22 bc 26 c1 64 9c b1 40
       -3.9990726 0.61701596 -10.420931 5.5503407
0001c0 f4 b4 e2 41 f5 bd 70 40 d7 51 64 bf 80 1d dc c1
       28.338356 3.761594 -0.8918738 -27.514404
0001d0 59 bb 74 c0 a7 7a 4c c0 64 21 28 41 77 72 ab 40
       -3.8239348 -3.194986 10.508152 5.3577228
0001e0 93 dd df 3f 1a a9 94 c0 50 31 bc c0 12 4f 53 3f
       1.7489494 -4.6456423 -5.8810196 0.82542527
0001f0 c6 d3 82 c1 8d 93 0c 41 e9 eb 3f 40 93 d4 c2 40
       -16.353405 8.786023 2.9987738 6.088449
000200 f3 ae 14 40 3e c6 5c c1 28 74 8b c0 a2 a4 d0 40
       2.323178 -13.798399 -4.357929 6.520097
000210 4e 4d 6a c1 ea 95 3d c0 75 9f 07 40 17 9c 86 c1
       -14.643873 -2.962275 2.1191075 -16.826216
000220 c2 e3 ce 40 eb 69 0f 41 be 31 c5 c1 15 6b 1f 41
       6.4653025 8.963359 -24.649288 9.963643
000230 0b ae 0f 40 9a d4 ac 40 e4 1f 21 41 e1 1e fd 3f
       2.2449977 5.4009523 10.070286 1.9775048
000240 9a e3 55 40 b4 9b 8a 40 fb 37 ad 40 93 68 25 3f
       3.3420167 4.3315067 5.4130836 0.6461269
000250 fb 8f 1b 3f 14 20 3e 40 42 e9 8b bf 8b 05 e2 be
       0.6076657 2.970708 -1.093056 -0.44144854
000260 de c5 1e bd bb 10 67 c0 48 3f 02 c1 ce 4b 9b bf
       -0.03876292 -3.6103961 -8.14045 -1.2132509
000270 3b c7 df c0 25 22 1a c1 23 52 72 40 c0 67 c2 3f
       -6.99307 -9.633336 3.7862632 1.5187912
000280 2f 5e 21 c1 28 18 6a be 71 d9 fa 40 52 26 35 3f
       -10.085494 -0.22860777 7.839043 0.707616
000290 a8 6e 4c bf c2 64 2f 40 a6 d6 17 41 61 20 5a 3f
       -0.7985635 2.7405248 9.489904 0.85205656
0002a0 82 db 6b be fb 7d bf 40 50 d1 a0 3e 86 69 0c c1
       -0.23032954 5.9841285 0.31409693 -8.775763
0002b0 09 97 71 c1 de 81 3a 40 45 af 2c c1 0c 11 68 c1
       -15.099374 2.9141765 -10.79279 -14.504162
0002c0 72 e0 98 40 88 bd c3 40 76 30 b6 40 80 f9 8b 3e
       4.777398 6.116886 5.6934156 0.2733879
0002d0 a0 42 a8 3f 04 b5 c4 40 2d 59 96 40 91 6b 89 c0
       1.3145332 6.1470966 4.6983857 -4.2943807
0002e0 a6 d8 ec 40 8f 6e a5 40 e6 c3 7a 40 95 b6 67 40
       7.4014463 5.169746 3.9182067 3.620519
0002f0 68 95 67 3f 0e 3a 93 c1 60 40 86 c0 0a 0a 21 3e
       0.9046235 -18.403347 -4.1953583 0.15726486
000300 34 f4 61 c1 c8 b7 9d c1 28 a0 2e 40 0a c7 5d 40
       -14.12212 -19.714737 2.7285252 3.4652734
000310 fc c0 5f bd fe 29 a0 40 0e 69 8f 40 5b 5b 88 40
       -0.054627404 5.005126 4.481574 4.261152
000320 e5 a9 16 40 4c dd 5e c0 64 de bb c0 54 d7 ab 40
       2.3541195 -3.482257 -5.8708973 5.370035
000330 72 21 2a 3e dd 6e d5 c0 4d ca 84 40 4c 22 dd c1
       0.16614321 -6.669783 4.149695 -27.641747
000340 c7 d6 d9 c0 cf 26 2a 41 da 73 6c c1 cd 81 73 3e
       -6.807468 10.634475 -14.778284 0.23779984
000350 8f d2 2c 40 2a f5 ce 40 e7 96 44 40 36 29 bf 40
       2.7003515 6.4674273 3.0717103 5.9737806
000360 5c 02 f2 3d 4e e4 7f 40 f4 b4 17 41 53 a8 52 40
       0.11816856 3.9983096 9.481678 3.2915237
000370 f9 c7 40 c1 1f 0d 4b 40 24 9f 7b 40 46 2e 24 41
       -12.048821 3.1726758 3.9315882 10.261297
000380 ac 64 f4 40 cc 56 dd c1 8c 77 db c0 56 f5 e5 3f
       7.637289 -27.667381 -6.858343 1.7965496
000390 e8 b7 7f c1 cc 17 8e c1 e1 9c 07 40 2a c8 4c c0
       -15.982399 -17.76162 2.1189501 -3.199717
0003a0 c6 e0 8c c0 d3 d6 9c 40 c0 a6 42 bf 11 9c 33 40
       -4.402438 4.9012237 -0.7603569 2.8064005
0003b0 11 5d a0 40 56 4b 9b bf f5 e1 0f 41 75 c3 3c 40
       5.0113606 -1.2132366 8.992665 2.9494298
0003c0 9a 92 97 bd 89 af c1 40 89 ec 1a 41 d4 57 c9 c1
       -0.07401009 6.0526776 9.682748 -25.167885
0003d0 af 02 85 c0 00 17 e6 40 ee 22 73 c1 de fc 59 bf
       -4.1565776 7.1903076 -15.196028 -0.8515147
0003e0 e7 52 2b bf 16 97 a9 bf 1f e7 28 40 05 68 8f 40
       -0.66923374 -1.3249233 2.6391065 4.4814477
0003f0 26 7e 8e c0 5d b7 36 c0 90 72 25 3f d2 11 14 40
       -4.452899 -2.8549416 0.64627934 2.3135877

sequential/dense_1/MatMul f4 [32, 64]
000000 ef 01 0d 3c 71 a9 4a be bb 2d 80 3e 3c e2 7b bf
       0.008606418 -0.197912 0.2503489 -0.9839208
000010 4c a1 07 40 40 cf 0f 40 54 60 38 3f df df c9 40
       2.1192198 2.2470245 0.72021985 6.308578
000020 f5 c7 2f 40 04 d4 5c 3e d7 cf b2 40 e7 4f 2b 3e
       2.7465794 0.21565253 5.587871 0.16729699
000030 a6 25 f4 3f 8e ac 3f 3e 36 96 e3 bd 4a 9f 07 40
       1.9073989 0.18718168 -0.11112635 2.1190972
000040 19 08 bd 40 ea df 4c 3e aa 94 e0 3f a3 69 3f 3f
       5.9072385 0.20007291 1.7545369 0.74770564
000050 51 eb 29 3f 94 af b8 3e 50 1a 17 3e c8 22 0e 3f
       0.6637469 0.36071455 0.14756131 0.5552182
000060 1d ac ac 3f 7c f8 78 3e 81 cc 58 40 57 05 3e 3f
       1.3490025 0.2431354 3.387482 0.742269
000070 12 13 d7 3e 38 cc f0 3f 1f 66 90 3e ab f7 6a be
       0.42006737 1.8812323 0.28202912 -0.2294604
000080 9e 17 23 40 9e 97 be 40 cc fa aa 40 9f 47 3a 3f
       2.5483165 5.956008 5.343115 0.72765535
000090 bd 48 88 bc ab 81 19 c0 b7 a2 3b 3e cc 92 01 3e
       -0.016636247 -2.3985393 0.1832379 0.12653655
0000a0 07 0a 29 3f dc a5 bb be 97 fb 22 bf 8b 33 88 be
       0.66030926 -0.36649978 -0.63665146 -0.26601824
0000b0 b5 ab 48 40 16 1a 48 3d 2b fd ac 40 63 e9 78 40
       3.1354802 0.048853002 5.4059043 3.8892448
0000c0 b0 7b bd 3e 3c f5 02 40 e3 40 52 be ec ff b9 3d
       0.3700843 2.046218 -0.20532565 0.09082016
0000d0 fb 59 91 3f 9e c2 ae bf 93 02 be 3e c2 5b e9 3f
       1.1355585 -1.3653142 0.3711134 1.8231127
0000e0 a6 3b af 3f 37 27 e6 40 c5 ca 9d 3f 2f fc ce bc
       1.3690078 7.192287 1.2327505 -0.025266735
0000f0 f6 06 8e 40 6c 5b 06 bf 92 c2 1d 3f 50 aa 0c 3f
       4.4383497 -0.5248325 0.61625016 0.54947376
000100 16 4a 02 bc 2a 8d 98 40 a8 1b d9 c0 f1 41 f8 c0
       -0.007952234 4.767232 -6.784626 -7.7580495
000110 57 0f 89 c0 33 7a e4 3d b9 16 17 40 75 01 c3 bf
       -4.2831225 0.1115612 2.360762 -1.523482
000120 54 cf 8a c0 a0 92 d0 3e f4 ca 9d c0 aa 7a 1b 40
       -4.3378086 0.40736866 -4.9310246 2.4293618
000130 fd eb 26 40 13 09 3a 3e 5f 7a 8c c1 3c 48 3a c1
       2.6081536 0.18167524 -17.559752 -11.642635
000140 67 b6 fe bf ec 69 fe c0 de 2e bd 3f d4 57 82 c1
       -1.9899415 -7.95043 1.4779928 -16.292885
000150 09 91 40 c1 8a 83 ca 3e 82 51 31 c1 92 3a 0d c1
       -12.035409 0.3955348 -11.082399 -8.826799
000160 92 66 f8 3f 92 6c 7e c1 c0 63 47 c0 91 c7 3b c1
       1.9406302 -15.901506 -3.1154633 -11.736222
000170 8f 1f 12 40 8c a0 f2 3f 0f b0 ad bd 32 49 fd 3f
       2.2831762 1.8955245 -0.08480846 1.9787962
000180 dd 44 e8 bf 47 f7 ea 3e b8 5b cb 3e 15 3b 33 c1
       -1.8146015 0.45891783 0.39718413 -11.201924
000190 e5 dc 85 c0 0d f6 27 c1 f5 77 b4 bf 93 76 94 40
       -4.1832147 -10.497571 -1.4099108 4.6394744
0001a0 bc 03 23 c0 d2 99 a8 c0 f2 da 86 40 5d 37 1a 3f
       -2.547103 -5.268777 4.2142267 0.6024073
0001b0 a8 2a ef bd eb c8 6b bd df 32 a4 3f 5d 2c 81 c0
       -0.11678058 -0.057564657 1.2828025 -4.0366654
0001c0 89 93 47 c1 dc 20 68 c0 f3 d0 25 3f 4f f5 f4 c0
       -12.473519 -3.6270056 0.64771956 -7.654945
0001d0 ff f1 16 c1 5f bd 82 be 87 fa c6 3f af 54 e8 c0
       -9.434081 -0.25535104 1.5545205 -7.2603374
0001e0 de 7c 2a 40 76 5d 17 c0 77 0c 1c c1 ef be 35 c1
       2.6638713 -2.3650794 -9.753043 -11.359115
0001f0 5d 2c a8 bf af f8 25 3e f3 cb 57 c0 0b 4d bd 3f
       -1.3138539 0.16208147 -3.371823 1.4789137
000200 97 22 7b c1 7d 0d c2 c0 2c 21 26 40 a3 27 da 40
       -15.695945 -6.0641465 2.5957747 6.8173385
000210 da 26 9e c0 1a 18 20 40 1e 8f 71 3e 1b 53 9e c0
       -4.9422426 2.501471 0.23589751 -4.9476447
000220 8d ee 6b 40 e6 67 96 c1 0f 5c 85 bf 74 28 7c c1
       3.686435 -18.800732 -1.0418719 -15.759876
000230 3b 6d ec bf 0e c8 81 c0 84 63 b7 40 6a cc 89 c0
       -1.8470834 -4.0556707 5.730898 -4.306203
000240 4e c3 ce c0 ab 41 ae c0 39 07 83 c0 c7 e6 0d 40
       -6.461341 -5.445516 -4.0946317 2.2172105
000250 a1 90 f4 be cd 63 57 c1 4b 5d a1 3e f6 4c b8 c0
       -0.47766593 -13.461865 0.3151649 -5.7593946
000260 58 cf f7 bf 7d 2a 22 40 49 94 46 40 a9 81 76 3d
       -1.9360151 2.5338433 3.1028006 0.060182247
000270 d0 24 9c c1 ec 27 17 c0 23 76 82 c1 ba 21 e8 c0
       -19.517975 -2.3618116 -16.307684 -7.254117
000280 39 76 b1 c0 92 df 90 c0 c2 ed 9b 3f af dd a2 3e
       -5.5456815 -4.5272913 1.2181933 0.31809756
000290 8d 28 df c0 92 87 e9 40 04 41 70 c1 85 b7 be c0
       -6.9737 7.297799 -15.015873 -5.9599023
0002a0 a0 31 1c 40 a2 bb f5 c0 80 48 a9 c0 32 68 2d c0
       2.4405289 -7.6791544 -5.2901 -2.7094846
0002b0 3d 3b 73 c0 f0 e8 53 c1 75 bf f6 c0 fc cd 8c c0
       -3.8004906 -13.2443695 -7.710871 -4.4001446
0002c0 7f 13 a8 3f c2 d9 9d c0 f5 e2 c0 c0 35 b5 97 c0
       1.313095 -4.932832 -6.0277047 -4.74087
0002d0 a3 55 7c bf 4f 4f 71 c0 2a 1b 8b c0 b0 12 97 c0
       -0.9856817 -3.7704656 -4.347066 -4.721031
0002e0 41 6d 2e c0 78 e9 b4 c0 38 4e 43 bf 64 b0 bd 3e
       -2.7254183 -5.6534996 -0.7629123 0.37048638
0002f0 74 88 97 c0 72 45 98 c0 75 79 90 3f fd b7 ce 3f
       -4.735407 -4.758477 1.1287066 1.6149899
000300 7e 2d 17 bd 0c 4c bb c0 c2 48 c3 c0 09 55 b6 c0
       -0.03690862 -5.853033 -6.1026316 -5.6978803
000310 f4 22 68 3e 40 50 98 c0 07 4a 64 c0 14 d0 bb 3e
       0.22669584 -4.759796 -3.5670183 0.3668219
000320 86 9e 17 c1 ae 15 45 c0 92 93 48 c0 65 45 79 c0
       -9.476202 -3.0794482 -3.134007 -3.8948605
000330 ba 58 10 c1 1b cc 61 40 7e 29 8d c0 9e cb 5f 40
       -9.021662 3.5280826 -4.411315 3.4968028
000340 98 c4 34 3f 73 c1 93 40 b6 ab 8c 40 de b6 eb be
       0.7061248 4.6173644 4.395961 -0.46037954
000350 3d 24 32 3f a0 3f 83 c0 1d 7d 3b bd a3 d5 2c 40
       0.69586545 -4.1015167 -0.045773614 2.7005394
000360 42 4e b8 40 5f fa 6b c0 55 c8 ad c0 8d 96 8a bd
       5.759553 -3.6871564 -5.4307046 -0.067669965
000370 87 31 75 c0 38 1c b4 3f 31 15 07 bd 34 0d b7 c0
       -3.831148 1.4071112 -0.032979194 -5.7203617
000380 06 ac 0c c0 98 b2 b1 40 b4 fb 28 40 3f 84 17 bf
       -2.1979995 5.553051 2.6403627 -0.59186167
000390 1b e7 2c 41 ae 6e d2 c0 e7 cf 74 bf b8 75 a1 c0
       10.806422 -6.5760107 -0.95629734 -5.04562
0003a0 3a 3f 0a c1 15 92 6c 41 d8 bf 7c c0 f9 e8 02 40
       -8.640436 14.785665 -3.9492092 2.0454695
0003b0 21 60 ba 40 0b 51 5b 3e 11 f3 95 3f 7a f0 d3 bf
       5.8242345 0.21417634 1.1714803 -1.6557763
0003c0 b2 10 5d c0 d1 da 8d 3e ee f2 0a 41 1e 41 6a 40
       -3.454144 0.27706006 8.684309 3.6602244
0003d0 57 ab b2 bf 7c 3e bf 40 39 09 25 40 a0 cb 72 40
       -1.3958539 5.9763775 2.578688 3.7936783
0003e0 a5 02 d1 40 11 bf 45 bf 4f 0f 88 bd 54 c3 0d bf
       6.531573 -0.7724467 -0.06643545 -0.5537617
0003f0 12 64 1e bf 26 9d 00 41 9c 7e 2d c1 77 e4 83 c0
       -0.61871445 8.038366 -10.8434105 -4.121639

sequential/dense_2/MatMul f4 [16, 32]
000000 12 a5 32 bf be d6 66 3e 03 16 b4 c1 0d d1 cc bf
       -0.6978313 0.22542855 -22.510748 -1.6001297
000010 3d bf 39 be 43 17 4b be 76 8e d5 bf 5b 9e f6 3e
       -0.18139358 -0.19833092 -1.6684101 0.4816769
000020 c0 5e 14 bf ae 4c a3 bf f1 27 1d 3f 3e e4 c8 c1
       -0.5795708 -1.2757776 0.6138907 -25.111446
000030 40 8e 20 c2 c2 2c 22 c1 3a 84 54 3f 93 67 b9 bf
       -40.138916 -10.135927 0.8301426 -1.4484733
000040 02 bd ae c0 0a 5a 4a c1 34 d3 d1 c0 2e c0 aa bf
       -5.4605722 -12.646982 -6.5570316 -1.3339899
000050 3a ed 11 c0 8b 6e c1 3e 0f 25 27 3f 0c 2d 05 c2
       -2.2801042 0.3777965 0.6529092 -33.29399
000060 7c d5 ca c1 61 b3 33 c0 72 a0 9d c1 63 f0 0a 3e
       -25.35424 -2.8078234 -19.703342 0.13568263
000070 70 0b 24 c1 17 ed bc c1 a8 7b bb bf cd 3c ae c1
       -10.252792 -23.615767 -1.4647112 -21.779688
000080 ac 88 04 41 4f 4d 8e c1 5d 45 1c bc 5c 0d 5a be
       8.283367 -17.787748 -0.009538022 -0.21294159
000090 1a 65 d3 40 25 a9 16 41 79 a2 68 bf 3f db 8e c1
       6.6060915 9.416295 -0.90872914 -17.857054
0000a0 e6 19 f6 be 51 ce b6 c0 6e be a6 c1 36 2c 96 3d
       -0.48066634 -5.712685 -20.842983 0.07332651
0000b0 c2 a3 15 41 0f 01 d8 be 8e 59 a2 c1 a9 68 a6 c0
       9.35248 -0.42188308 -20.293728 -5.200276
0000c0 b6 14 df 3e 53 40 41 41 e1 76 b1 be 99 e2 11 41
       0.4357049 12.078204 -0.3466101 9.117822
0000d0 32 9e 3e be a6 a5 a5 c1 81 6d 96 c1 a8 73 15 41
       -0.18615034 -20.705883 -18.803469 9.340736
0000e0 f7 b3 22 3e 50 a7 25 3f b6 9d 5d 3e 19 38 97 c1
       0.15888964 0.64708424 0.21642193 -18.902391
0000f0 c1 50 0c bf d7 7d d5 3d 4b a1 74 bf a0 ad ce 3e
       -0.5481072 0.10424393 -0.95558614 0.4036684
000100 c0 12 fd 3d 3a fa ce 3c a7 8e e2 3f dd e9 23 c2
       0.12357092 0.025265802 1.7699784 -40.978382
000110 e1 b1 bf 3c 82 eb 58 3d 1c 3c 2a c2 ce 76 37 3e
       0.023400249 0.052958973 -42.5587 0.17916414
000120 91 71 c0 c1 b3 c8 06 c2 f2 eb 7a 3d 4e 39 a9 3f
       -24.055452 -33.695995 0.06126017 1.3220613
000130 6f 06 0c c1 cd 0d 1a c2 b8 ee da 3d 60 80 10 c2
       -8.751571 -38.513477 0.10690063 -36.125366
000140 fe 0e 25 bf d1 34 73 be a9 b2 2b c2 1e 94 53 be
       -0.64476 -0.23750617 -42.924473 -0.20661971
000150 17 5b 27 c2 db e3 2e bd 36 98 63 bd 1b 56 af 3e
       -41.838955 -0.04269777 -0.05556508 0.3424538
000160 83 ef c7 3f a8 b1 72 c1 c2 87 36 3e 3a 26 4c 3e
       1.5619968 -15.168373 0.17825225 0.19936457
000170 b4 a8 1a c2 c6 8b 92 3f 0b 1a 2c c2 08 ef e1 3d
       -38.66475 1.1448905 -43.025433 0.1103192
000180 f6 58 83 3e 06 c2 90 3f 7d f9 1b 3f a3 2d 0b c1
       0.2565381 1.1309211 0.60927564 -8.698642
000190 5b 80 ce 3e 54 bc 3c 3b 95 9c 1a c1 ff 41 46 3f
       0.40332302 0.0028798776 -9.663228 0.7744445
0001a0 f2 24 ba bf 5f 7d 77 c0 5c 0f 7f 3f 7e b2 23 3f
       -1.4542525 -3.867027 0.9963281 0.6394423
0001b0 22 53 6e 3f 25 ec c0 c1 8e fe 37 3f ec da 86 c0
       0.930956 -24.115305 0.71872795 -4.214224
0001c0 d1 43 04 bf 0f f9 9f 3e 8f cb a8 c1 02 22 7c 3d
       -0.5166598 0.31244704 -21.099394 0.06155587
0001d0 fb 60 3a c1 55 c9 90 3f ce de 66 3f 6e c1 a5 3e
       -11.648677 1.1311442 0.9018372 0.32374138
0001e0 7c 7a 44 3f 17 3f 9a c0 fc 37 98 3e df e7 09 3f
       0.76749396 -4.8202014 0.29730213 0.5386943
0001f0 d6 ed d1 c1 17 de 17 3e 9c dc b1 c0 a4 2b d2 3e
       -26.24113 0.14830814 -5.55818 0.4104892
000200 52 7e 88 40 e6 c7 5f 3c 16 f4 b8 c1 96 36 14 3e
       4.26542 0.013658499 -23.119183 0.14473948
000210 86 87 43 40 71 60 21 40 13 04 2f bd 1f c8 e8 3e
       3.0551467 2.5215113 -0.042728495 0.4546518
000220 b3 94 64 3d bd 0b 10 3e 22 93 0a 3f 58 2c e8 c1
       0.055805873 0.14066978 0.54130757 -29.021652
000230 8a e1 6c 40 a7 4a e5 bc 75 22 a7 3f a0 10 30 3e
       3.7012658 -0.027989699 1.305739 0.17193842
000240 4e 6a d3 c0 22 49 59 40 8a 93 6a bd 50 12 47 40
       -6.6067266 3.3950887 -0.05726961 3.1104927
000250 24 45 1b 3e b0 97 c5 3f 82 73 f6 3f 4c 0d 36 40
       0.15163094 1.5436916 1.9254 2.8445616
000260 86 29 ce c1 c3 e8 85 3e 48 38 d9 c1 f9 04 b6 3e
       -25.770275 0.26154146 -27.152481 0.3555067
000270 76 b7 01 3e 46 3e c8 c1 bf 43 69 bb d8 24 e7 c1
       0.12667641 -25.030407 -0.0035593358 -28.89299
000280 2f d4 8c 40 ba 01 ec c1 fe e3 87 bd 48 1a 34 3e
       4.4009013 -29.500843 -0.06635283 0.1758815
000290 38 d4 56 40 20 82 b4 40 90 cf 9e 3d 7c ad 02 c2
       3.3567028 5.6408844 0.07754433 -32.66942
0002a0 fa ee 09 c0 36 45 bc 3d 71 ee 07 c2 72 60 8d 3d
       -2.155211 0.091928884 -33.982853 0.06903161
0002b0 e4 b9 83 40 6e 5c 43 3c ed cd 00 c2 73 f6 a4 3e
       4.1164417 0.011923892 -32.2011 0.32219276
0002c0 8f 3e 97 3e 41 72 d5 40 ed 61 67 3e 09 e1 8c 40
       0.29539916 6.670197 0.2259595 4.40247
0002d0 38 ef a4 bc ef be 05 c2 81 8b fb c1 1f bd 97 40
       -0.0201336 -33.43646 -31.443117 4.741836
0002e0 2c a6 ed 3d d5 8f 60 be e5 f4 11 3f 20 13 f0 c1
       0.116039604 -0.21929868 0.57014304 -30.009338
0002f0 ad 17 65 3e 60 fc ec 3d 02 2f f2 3d b8 f6 48 3c
       0.22372313 0.11571574 0.11825372 0.012265854
000300 df 18 36 41 f1 47 ca c0 ff 58 29 c2 34 69 35 3e
       11.381072 -6.321282 -42.33691 0.17715913
000310 43 79 38 41 b6 a4 41 41 19 4a ca 3d 95 26 c8 c0
       11.529605 12.102713 0.09877414 -6.2547097
000320 91 50 2d c0 32 6c 36 3e 43 c9 df c0 21 e9 1a c2
       -2.7080424 0.1781471 -6.993318 -38.727665
000330 07 ae 21 41 c5 87 df 3d ce eb 0d c1 e2 d3 0b 3e
       10.104987 0.10914568 -8.8700695 0.13655046
000340 a4 70 b5 c1 70 36 34 41 9f 3e 94 3d c8 33 46 41
       -22.68 11.26329 0.072385065 12.387642
000350 a0 8a 99 bc dc 4c c6 c0 fc 48 e0 c0 5f 93 34 41
       -0.01874286 -6.1968822 -7.008909 11.285979
000360 84 d9 0d c2 a7 12 f5 c0 3b 4c 13 c1 ec 09 c5 c0
       -35.462418 -7.658527 -9.206111 -6.157461
000370 bc 53 9d bc c2 1d 28 c2 cf 79 3c 3d 87 d2 38 c1
       -0.019204967 -42.02906 0.046014603 -11.551398
000380 f6 64 97 3e 5e d7 7a c0 2e 08 bc 3f 0a 25 d5 bf
       0.29569215 -3.919395 1.4689996 -1.6651928
000390 65 a5 7e 3e 14 f5 fe 3d 64 35 c2 bf e2 67 4f c0
       0.2486778 0.12449089 -1.5172544 -3.2407155
0003a0 c0 8c 1f be d7 e0 da bf 88 a1 82 c0 ca 65 c0 3f
       -0.15581036 -1.7099866 -4.082218 1.5031064
0003b0 da 6a 6d 3d b7 68 f1 bf eb b0 6b c0 14 3f f6 bf
       0.05796323 -1.8860081 -3.6826732 -1.9238
0003c0 3d 9b 1a 3e 6d 50 0d 3f c1 a3 8d bf e0 57 83 3e
       0.15098281 0.55200845 -1.1065599 0.2565298
0003d0 fd c2 89 bf 15 9f 7e c0 58 67 76 c0 0c 44 ea 3e
       -1.0762631 -3.9784596 -3.8500576 0.4575504
0003e0 b0 07 db 3f 56 14 58 be 7c f6 bc 3f 68 cd 4e c0
       1.7111721 -0.21101508 1.4762721 -3.231287
0003f0 3a 22 c1 bf 99 dc b2 3f ce e1 c7 bf 25 d9 ce 3f
       -1.508857 1.3973571 -1.5615785 1.6160017

sequential/dense_3/MatMul f4 [10, 16]
000000 2c 07 46 c1 68 b6 28 c0 4d 35 24 c1 c9 19 ad c0
       -12.376751 -2.6361332 -10.263013 -5.4093976
000010 74 2b 04 c2 37 f8 93 c0 8d 4c f1 c1 d0 8e 86 3f
       -33.042435 -4.6240497 -30.162378 1.0512333
000020 31 10 ea c1 9a 0a 97 c1 72 3b f9 bd 98 6d 56 3f
       -29.257906 -18.880177 -0.121695414 0.83760977
000030 b0 e2 97 c1 86 70 cb c1 c8 ec bf c1 e5 c7 fa c1
       -18.985687 -25.429943 -23.990616 -31.347605
000040 0f ce 40 c1 5f 8b 92 c2 de 23 a7 c1 0d f6 91 c1
       -12.050307 -73.27221 -20.892513 -18.245142
000050 0f 2c 7a 3e a4 fd 36 c2 4e 9e cf c1 42 9a 0c c2
       0.2443087 -45.747696 -25.952297 -35.150642
000060 6b 02 e7 c1 dd 27 07 c2 5c dd 7d c2 31 1d 30 c2
       -28.87618 -33.78893 -63.46617 -44.028507
000070 61 1a bd 3f da 78 ff c1 b5 a5 0d c2 3c 2c d8 c1
       1.4773675 -31.93401 -35.411823 -27.021599
000080 cd 0b 82 c1 e0 c1 0a c2 13 f7 b8 c1 d9 0b 78 c1
       -16.255762 -34.68933 -23.120642 -15.5028925
000090 d2 cb 78 c1 fb 8d 47 c2 95 02 64 c2 2e f4 74 c0
       -15.549761 -49.888653 -57.00252 -3.8274035
0000a0 bd 29 1e c2 e1 51 49 c2 10 34 0f c1 0d 9b a5 c0
       -39.54076 -50.32996 -8.950211 -5.175177
0000b0 73 16 15 c0 29 67 47 c2 73 27 c6 c1 67 b3 1a c2
       -2.3294952 -49.850742 -24.769262 -38.675198
0000c0 2b 44 26 c0 01 ad 78 40 0d 4c df 3f ac d4 02 40
       -2.5979106 3.8855593 1.7445084 2.0442305
0000d0 f4 7d 74 40 0c 8e 87 40 bf 25 a3 40 0a 4f 58 40
       3.8201876 4.2360897 5.0983577 3.3798242
0000e0 45 62 99 40 3c 72 8c 40 dd 04 14 40 ec 3b 51 40
       4.793246 4.3889446 2.3127968 3.2692823
0000f0 5e 97 11 3f 0b 56 9b 40 9d c5 87 40 83 12 98 40
       0.56871593 4.8542533 4.2428727 4.7522597
000100 e2 6c ec c1 e2 f4 71 40 79 25 bd c1 44 c8 2d c0
       -29.553165 3.7805715 -23.643297 -2.7153482
000110 c5 60 86 40 3b 96 82 40 a9 ef a4 40 8d c1 a1 c0
       4.1993127 4.0808387 5.1542554 -5.054877
000120 06 bd b7 3f e9 d6 86 40 ad 32 ae c0 a0 e9 bb c0
       1.435456 4.213734 -5.443686 -5.8722687
000130 3d a1 11 40 18 30 99 40 14 5d 8c 40 0f 2b cc 3f
       2.2754662 4.787121 4.386362 1.595064
000140 39 94 a3 c0 cf 13 8d 3f f8 85 49 40 f5 11 01 40
       -5.1118436 1.102167 3.1488018 2.016721
000150 17 bb 0c c2 d8 7d 7f 3f 54 4f 9f c1 c9 4c 44 40
       -35.182705 0.998014 -19.913734 3.0671866
000160 1c cc c0 3f 81 b9 5c c1 5c d6 09 40 90 7f 3f 40
       1.5062289 -13.795289 2.1537085 2.9921608
000170 e5 bf 4e c2 cc f7 99 c1 14 21 6a c1 31 17 9c 3f
       -51.687397 -19.245995 -14.633076 1.2194577
000180 bd 5d 3c c1 41 c8 11 c2 a2 86 81 c1 f3 a9 65 c1
       -11.772885 -36.44556 -16.190739 -14.3539915
000190 af 3b 37 bf cd fb 18 be 43 bd 7a 3f 88 5e 52 c1
       -0.71575445 -0.14939804 0.9794504 -13.148079
0001a0 79 66 fa c1 0a 9c 4f 3e 9b 9f b1 c1 bf 73 87 c1
       -31.300035 0.20274368 -22.202932 -16.931517
0001b0 84 cd 8e 3f e8 0e 5b 3f ef a4 cb c1 d6 a2 ec c1
       1.1156468 0.8556962 -25.455534 -29.57951
0001c0 e6 39 fa 3f 6c 97 85 c1 b3 ce 0d c1 93 50 5c bf
       1.9548919 -16.698936 -8.862964 -0.86060447
0001d0 62 b0 4d c0 c4 b7 c1 c1 73 c4 42 c1 18 98 19 c0
       -3.2138906 -24.21473 -12.172961 -2.399908
0001e0 62 fd 80 c1 6e 11 b3 c1 88 57 a8 c0 e1 0a 42 c0
       -16.123722 -22.38351 -5.260685 -3.031914
0001f0 5c f5 8d bf af 0b 87 c1 6b 39 c0 bf 3c b6 8e c1
       -1.1090503 -16.880705 -1.5017523 -17.838982
000200 0f 65 4c 40 1b f9 25 bf 4b 5c 15 40 95 96 a7 3f
       3.1936681 -0.6483323 2.333758 1.3092829
000210 5c a1 c6 3d 24 db 01 c0 09 70 9b 3f 64 9a 06 40
       0.096987456 -2.0290003 1.2143565 2.1031733
000220 52 6e ef 3f 12 d0 6d 3f f3 e6 9e 3f 4b a7 04 40
       1.8705542 0.92895615 1.241423 2.0727108
000230 47 f5 c7 be 7d d8 ad 3f 1f 83 9d 3f 37 d4 d4 3f
       -0.3905432 1.3581692 1.230564 1.6627263
000240 97 9a 98 40 06 c5 b4 c1 81 8a 02 40 35 6f 1c 40
       4.768871 -22.596203 2.0397036 2.4442875
000250 64 fd 41 40 2d 09 ec c1 c9 d5 72 c1 fa 64 c3 c0
       3.0310907 -29.50448 -15.177194 -6.1060762
000260 99 c6 79 40 9b 68 97 c1 c1 8e 23 c1 74 bb e2 c0
       3.9027464 -18.926077 -10.222352 -7.0853825
000270 80 79 f1 3f 93 90 82 c1 25 7e c6 3f 5d 61 63 40
       1.8865204 -16.320593 1.5507246 3.5528176
