deepfit_classifier_v3.tflite (tflite, 23140 bytes, 8 tensors)

sequential_4/dense_19/BiasAdd/ReadVariableOp/resource f4 [10]
2.839148 0.9889555 2.3116567 -5.4159613 -5.174247 0.61866003 2.101915 -0.4056866
-0.7974417 -2.6185803
00000000: 9ab4 3540 302c 7d3f 2ff2 1340 8e4f adc0
00000010: 6e93 a5c0 8160 1e3f c685 0640 27b6 cfbe
00000020: 2425 4cbf d296 27c0

sequential_4/dense_18/BiasAdd/ReadVariableOp/resource f4 [16]
-3.1104171 -2.48882 -3.8622587 -4.3156204 -4.3764324 -3.1892426 -3.217962 -1.8404723
-3.223183 -3.1052542 -2.5609052 -3.628076 -3.3203588 -4.2346196 -3.924998 -3.953574
00000000: 1311 47c0 d448 1fc0 3f2f 77c0 9019 8ac0
00000010: bc0b 8cc0 8d1c 4cc0 17f3 4dc0 9994 ebbf
00000020: a148 4ec0 7cbc 46c0 dfe5 23c0 6632 68c0
00000030: c280 54c0 0182 87c0 2b33 7bc0 5b07 7dc0

sequential_4/dense_17/BiasAdd/ReadVariableOp/resource f4 [32]
-1.9776583 -3.4955492 -6.11936 -3.5738065 -2.1313663 -0.8347042 -5.759998 -1.0532038
-3.1252785 -3.859141 -3.6567876 -6.5751123 -3.0551682 -3.4028952 -12.798522 -3.5868459
-6.0343785 -5.7854557 -3.5499828 -3.4648805 -2.517688 -2.1383898 -2.9923916 -12.624361
-6.4639673 -2.2270813 -12.359475 -1.4669179 -2.9964197 -2.7232292 -12.370356 -3.1221457
00000000: e823 fdbf 14b7 5fc0 ccd1 c3c0 3fb9 64c0
00000010: 4e68 08c0 2daf 55bf e751 b8c0 62cf 86bf
00000020: 9004 48c0 2bfc 76c0 cf08 6ac0 5267 d2c0
00000030: e087 43c0 09c9 59c0 bfc6 4cc1 e28e 65c0
00000040: a119 c1c0 7422 b9c0 eb32 63c0 9ac0 5dc0
00000050: cd21 21c0 61db 08c0 5883 3fc0 62fd 49c1
00000060: d2d8 cec0 8088 0ec0 69c0 45c1 f7c3 bbbf
00000070: 57c5 3fc0 6349 2ec0 faec 45c1 3cd1 47c0

sequential_4/dense_16/BiasAdd/ReadVariableOp/resource f4 [64]
-2.8419797 -1.7192836 0.8143008 -7.4575152 -2.6911728 -0.9275303 5.5519953 -0.59708214
6.0063457 0.3531489 -2.2425358 -0.72621274 2.5898674 -2.4426787 -4.955565 -1.3580023
-0.40257388 5.1163397 -3.5658386 -0.5872234 4.192878 -2.149883 -9.817282 -5.3784184
1.7962023 6.2507167 -1.6433347 -2.1394129 -3.469717 -1.2564478 -5.7968726 4.009762
-1.6540747 2.6205118 -0.7074999 1.824728 5.808978 -8.755145 1.2760116 0.8040965
-0.5544728 -1.1824062 -8.788847 -2.8918288 -2.2866042 -0.9184302 0.9440624 -1.5073285
-1.4737468 -2.061202 1.4657658 0.5574945 4.8602686 -0.5177049 -1.2525916 -2.583096
-1.7072891 -5.773563 -2.8116555 2.4507923 -3.4007514 -1.5651923 -1.2256618 -0.92692417
00000000: ffe2 35c0 7c11 dcbf 0476 503f f7a3 eec0
00000010: 2d3c 2cc0 a072 6dbf f2a9 b140 60da 18bf
00000020: fc33 c040 efcf b43e b585 0fc0 14e9 39bf
00000030: 63c0 2540 d954 1cc0 fd93 9ec0 05d3 adbf
00000040: 2a1e cebe 0eb9 a340 b336 64c0 4654 16bf
00000050: 0e2c 8640 af97 09c0 9613 1dc1 011c acc0
00000060: f5e9 e53f df05 c840 cb58 d2bf 24ec 08c0
00000070: d80f 5ec0 48d3 a0bf fb7f b9c0 f84f 8040
00000080: b8b8 d3bf 77b6 2740 b71e 35bf b090 e93f
00000090: 26e3 b940 1315 0cc1 5954 a33f 45d9 4d3f
000000a0: eef1 0dbf 1659 97bf 1e9f 0cc1 b913 39c0
000000b0: b957 12c0 3e1e 6bbf 13ae 713f 24f0 c0bf
000000c0: bca3 bcbf bcea 03c0 379e bb3f f6b7 0e3f
000000d0: 5287 9b40 4f88 04bf ec54 a0bf 7251 25c0
000000e0: 7388 dabf 07c1 b8c0 2af2 33c0 c8d9 1c40
000000f0: e9a5 59c0 3958 c8bf 7ce2 9cbf e74a 6dbf

sequential_4/dense_16/MatMul f4 [64, 36]
0.013779302 -1.7978679 -9.418027 -15.174839 9.649255 -2.815029 3.509039 -1.3719047
-5.6359076 -7.4538717 1.9621373 -3.2200735 8.285082 -1.4961691 -1.5009383 0.9411078
-10.78767 5.58182 -11.61166 9.900939 8.061555 1.7422602 -8.687002 11.784393
8.815991 -4.4503 -5.12452 -11.193614 4.250294 -3.3430936 -15.705691 6.348662
-7.507328 -6.0255 8.699177 0.8863986 -2.1677604 0.49626118 -9.855467 -1.2007294
19.381037 -0.34449065 -1.759131 -18.278975 -4.26306 -1.1231642 7.382915 0.19224133
4.160974 -3.605104 -2.3077621 -0.73898196 -8.504243 7.264818 -1.4067774 7.847754
5.7344737 -11.155842 -7.399948 8.821547 -9.841797 -1.8907009 -3.5490367 -10.8740835
6.499533 -0.5800104 -20.531147 8.285877 0.65752673 2.186342 11.357223 4.884221
-0.86119604 -7.0898466 5.0791154 4.965502 -29.667736 -11.133384 2.067045 26.888199
-3.080066 -8.76228 13.381776 -10.100337 4.08543 -7.184459 1.048525 -4.4308286
-5.728505 -2.114182 -8.914619 8.893872 11.340497 1.6842264 -5.573059 10.40117
5.16781 -2.8724368 14.022458 -28.272911 -2.4960632 5.774903 -13.451483 -1.6573567
-5.121529 -6.4665236 6.847645 6.4687147 -3.6358964 3.1692233 2.9427278 -1.7395391
-3.702129 3.46499 3.1268733 -4.0624475 7.8814425 6.097326 -5.862069 4.3109407
-10.776907 6.1085987 -3.3437872 -0.81310725 7.5243177 -1.1551597 1.0246776 -6.1869473
-5.8145432 6.4974475 -0.63260543 -6.5667744 4.9040623 -4.8288937 -14.155709 21.083128
-0.50677735 -13.807423 21.74683 -1.9039435 1.7142824 1.0419543 -0.5547552 -2.721846
5.7304807 -4.001193 8.52722 22.22604 -40.177635 -5.5543523 -4.0187793 16.874954
4.421192 -0.24888103 12.269029 -3.2219934 -2.3119268 -11.255058 3.2229214 1.0865974
-6.055356 0.8443559 -0.14267087 -1.4812366 2.7983465 -10.611399 17.076565 -1.1948744
-15.106232 11.55669 18.84795 -6.466242 -3.2095196 7.8699512 -5.6676607 -4.763869
-0.04010911 -3.068273 2.0443604 1.7743351 6.806285 1.794787 4.806816 -3.055659
-7.1983614 -1.03608 -5.803287 -6.7230573 -14.534445 13.107586 -1.4728492 -8.737081
-6.196398 -0.30007654 3.84312 7.189723 14.493419 -3.7218847 9.23193 -5.2546377
-7.3804045 0.32749808 22.23634 -6.5708957 -2.1190653 26.827372 -25.222351 17.17779
-7.997967 -16.44254 5.483813 -8.537411 2.6196842 6.0435247 1.3564578 -0.79697394
-4.1835084 -1.456954 3.095593 8.193955 1.064089 -6.305026 -7.975382 -3.0621977
4.208389 2.5934238 -1.9515817 -5.415732 -6.957022 -3.055396 0.45565796 -9.6500845
-3.5357985 -4.979479 0.3927732 4.098129 4.5174756 6.2759204 8.906644 3.1661227
3.56426 4.8408093 13.462457 -10.899104 -15.891286 10.138081 -9.19456 -20.07704
-1.1278528 2.7822075 -0.58420855 2.316857 -9.97029 -1.6133085 -0.41844252 10.326755
00000000: 95c2 613c 8920 e6bf 3db0 16c1 24cc 72c1
00000010: 5963 1a41 6f29 34c0 1894 6040 939a afbf
00000020: 5b59 b4c0 1e86 eec0 5127 fb3f af15 4ec0
00000030: b28f 0441 7882 bfbf bf1e c0bf 71ec 703f
00000040: 4c9a 2cc1 459e b240 5cc9 39c1 3f6a 1e41
00000050: 21fc 0041 6202 df3f f6fd 0ac1 e08c 3c41
00000060: 4d0e 0d41 dc68 8ec0 11fc a3c0 0b19 33c1
00000070: 6902 8840 3ff5 55c0 834a 7bc1 3d28 cb40
00000080: 083c f0c0 e5d0 c0c0 d42f 0b41 05eb 623f
00000090: 96bc 0ac0 f215 fe3e feaf 1dc1 80b1 99bf
000000a0: 5d0c 9b41 1461 b0be 342b e1bf 573b 92c1
000000b0: fd6a 88c0 d8c3 8fbf d740 ec40 e9da 443e
000000c0: b326 8540 06ba 66c0 60b2 13c0 ec2d 3dbf
000000d0: 6111 08c1 6479 e840 4811 b4bf cd20 fb40
000000e0: cf80 b740 547e 32c1 60cc ecc0 0e25 0d41
000000f0: 0078 1dc1 7d02 f2bf 6b23 63c0 3ffc 2dc1
00000100: 2dfc cf40 907b 14bf ca3f a4c1 f492 0441
00000110: ac53 283f 07ed 0b40 2fb7 3541 8a4b 9c40
00000120: 5877 5cbf 06e0 e2c0 1d88 a240 64e5 9e40
00000130: 8657 edc1 5722 32c1 774a 0440 081b d741
00000140: cd1f 45c0 4d32 0cc1 c11b 5641 fb9a 21c1
00000150: d8bb 8240 17e7 e5c0 1136 863f 59c9 8dc0
00000160: ea4f b7c0 c24e 07c0 48a2 0ec1 4d4d 0e41
00000170: ad72 3541 bb94 d73f 8056 b2c0 316b 2641
00000180: b35e a540 01d6 37c0 fd5b 6041 ec2e e2c1
00000190: 80bf 1fc0 01cc b840 4639 57c1 4424 d4bf
000001a0: 91e3 a3c0 c3ed cec0 e81f db40 b6ff ce40
000001b0: 87b2 68c0 8ed4 4a40 a755 3c40 38a9 debf
000001c0: aeef 6cc0 65c2 5d40 b11e 4840 92ff 81c0
000001d0: c734 fc40 4b1d c340 1296 bbc0 3af3 8940
000001e0: 366e 2cc1 a479 c340 9c00 56c0 cc27 50bf
000001f0: 36c7 f040 46dc 93bf a328 833f 79fb c5c0
00000200: bd10 bac0 17eb cf40 6ef2 21bf 0423 d2c0
00000210: 14ee 9c40 4c86 9ac0 c97d 62c1 3faa a841
00000220: 29bc 01bf 34eb 5cc1 82f9 ad41 6cb4 f3bf
00000230: 9b6d db3f c25e 853f 7004 0ebf ba32 2ec0
00000240: 1960 b740 c609 80c0 7e6f 0841 eece b141
00000250: e6b5 20c2 41bd b1c0 d799 80c0 e8ff 8641
00000260: 687a 8d40 abda 7ebe f14d 4441 2435 4ec0
00000270: 9cf6 13c0 b814 34c1 5844 4e40 a015 8b3f
00000280: 7ac5 c1c0 b527 583f 5018 12be 2999 bdbf
00000290: 1c18 3340 4ac8 29c1 ce9c 8841 a5f1 98bf
000002a0: 20b3 71c1 34e8 3841 9ac8 9641 74eb cec0
000002b0: c568 4dc0 a4d6 fb40 7a5d b5c0 9d71 98c0
000002c0: 7349 24bd 965e 44c0 cdd6 0240 6a1d e33f
000002d0: 16cd d940 95bb e53f 70d1 9940 eb8f 43c0
000002e0: fa58 e6c0 459e 84bf 87b4 b9c0 4923 d7c0
000002f0: 168d 68c1 acb8 5141 5386 bcbf 15cb 0bc1
00000300: e448 c6c0 a2a3 99be aef5 7540 3612 e640
00000310: 0be5 6741 5c33 6ec0 fcb5 1341 fe25 a8c0
00000320: 462c ecc0 d4ad a73e 06e4 b141 c744 d2c0
00000330: c49e 07c0 759e d641 60c7 c9c1 1d6c 8941
00000340: 58ef ffc0 528a 83c1 657b af40 3c99 08c1
00000350: e8a8 2740 8e64 c140 69a0 ad3f 7c06 4cbf
00000360: 4ddf 85c0 787d babf 321e 4640 711a 0341
00000370: 1134 883f c6c2 c9c0 5436 ffc0 0cfb 43c0
00000380: 1fab 8640 a8fa 2540 6ecd f9bf ad4d adc0
00000390: ed9f dec0 9c8b 43c0 004c e93e bf66 1ac1
000003a0: 864a 62c0 e457 9fc0 9219 c93e df23 8340
000003b0: 298f 9040 57d4 c840 9d81 0e41 c1a1 4a40
000003c0: d61c 6440 e9e7 9a40 3966 5741 bb62 2ec1
000003d0: b542 7ec1 9435 2241 eb1c 13c1 c79d a0c1
000003e0: 7b5d 90bf b00f 3240 b18e 15bf 6347 1440
000003f0: 4f86 1fc1 e580 cebf 193e d6be 633a 2541

sequential_4/dense_17/MatMul f4 [32, 64]
-0.22351488 0.5579236 -10.954243 -0.17370185 -7.206162 1.2349757 -14.04896 3.3849673
-9.928224 -1.4944621 -7.8334723 2.1546535 -5.376696 2.0870001 -18.824028 1.6541326
5.788108 -16.130411 3.3915277 3.9205718 -3.8176162 -1.8533314 6.9802 -5.025616
-11.412377 -6.619497 -20.69629 2.7537553 2.447392 -1.1098022 -9.398033 -3.7544053
-2.661678 -13.576196 -0.080048084 -11.542198 -1.4638238 6.749838 -13.497311 -9.636155
-5.8333864 0.4384453 5.062509 0.83295465 -1.4669502 0.5420384 -12.161762 -0.09161034
-2.9891462 1.1382259 -11.201284 -9.487199 -5.833907 -1.3501608 2.368693 -7.014319
1.3734925 -3.0805547 1.8250226 -8.010475 2.0042071 -2.021026 1.5013232 3.5714316
0.2995172 3.5646548 -0.10463454 -1.1602116 -8.657499 -10.192318 3.11471 -12.431777
2.9800034 -4.0823493 0.34137607 3.1950712 3.0506365 -6.3321357 -2.0576894 6.480804
-10.339351 1.7757831 -1.0801315 8.775605 4.7952075 -14.828545 0.10226535 -0.366752
0.19537865 3.6175199 -0.70829755 4.5375047 -2.7311258 -3.880026 0.4873178 4.5394673
-21.108301 3.1631308 -7.356967 -3.1115506 2.479333 -0.461063 -0.2664509 0.09549036
-11.512211 1.1320506 -0.24217625 0.7136625 -15.49889 -6.2913227 -0.34995437 0.7706121
-5.377339 4.104463 0.17081732 -8.363304 5.2745233 -7.348599 -11.1682625 -6.02345
3.1199996 0.7491287 -0.6592954 -1.5547605 -1.9824969 -22.028944 2.5897255 4.716189
-20.525621 -11.035808 -5.2773643 -0.37652695 1.0081236 9.3083105 2.0967548 9.447512
1.3031999 0.26846805 -5.862253 -2.5094192 -3.4177067 -0.65599245 -1.5838498 -2.4544525
5.513971 1.857879 6.0474157 -2.7439685 -0.8693152 -0.04745061 1.5006963 3.5774035
-4.345319 0.70739293 -9.952816 -4.625347 8.544844 0.8489746 -12.900937 -0.5187164
1.2292943 0.08019099 5.2220674 8.672552 0.075452544 6.31628 -3.6606731 -5.974217
7.418854 -19.334394 4.668055 -20.474194 -0.021154927 1.3872288 -3.3550677 -17.598827
1.4462773 -12.927485 -4.0105333 7.0520906 -0.4065212 2.8630314 6.8876276 -0.12679186
-15.276369 2.7601593 6.077351 8.467786 9.848966 0.4628531 -7.2049932 -2.4835696
1.2010806 6.780856 -0.047604654 -1.530281 -8.85803 -7.2209134 3.1666386 -10.038667
3.814725 -2.3991141 0.74620646 11.545313 3.635574 -7.407857 -3.2735431 10.319904
-8.284816 3.130123 -1.201435 7.578222 3.9257028 -15.278009 -0.39371124 -1.9584196
0.4183589 3.4001837 -0.8750313 7.7769513 -2.5951912 -3.5504398 0.44362798 3.9613128
-17.038908 2.10644 -5.4478173 0.42671886 2.3005896 -0.5907904 -0.30895698 0.40362126
-15.828134 0.11622334 -0.5213953 1.748386 -15.4605255 -6.213101 0.0020706486 3.9199889
-4.021354 5.2486024 0.12998316 -6.109808 2.4734747 -6.4812436 -9.538617 -5.788269
5.405271 -1.7445081 -1.6839244 -1.1307327 -1.7401781 -18.92584 8.150057 9.35722
00000000: 16e1 64be 15d4 0e3f 9444 2fc1 e6de 31be
00000010: e198 e6c0 af13 9e3f 8ac8 60c1 4ea3 5840
00000020: 01da 1ec1 894a bfbf ceab fac0 d8e5 0940
00000030: e50d acc0 6991 0540 9c97 96c1 9eba d33f
00000040: 2e38 b940 150b 81c1 ca0e 5940 a6ea 7a40
00000050: d353 74c0 f739 edbf cc5d df40 d9d1 a0c0
00000060: 1999 36c1 ebd2 d3c0 0092 a5c1 873d 3040
00000070: 12a2 1c40 000e 8ebf 585e 16c1 2d48 70c0
00000080: ef58 2ac0 1938 59c1 40f0 a3bd d8ac 38c1
00000090: 945e bbbf acfe d740 fcf4 57c1 b12d 1ac1
000000a0: 1aab bac0 e77b e03e 1300 a240 843c 553f
000000b0: 06c5 bbbf 07c3 0a3f 9496 42c1 349e bbbd
000000c0: 2c4e 3fc0 63b1 913f 7638 33c1 91cb 17c1
000000d0: 5eaf bac0 12d2 acbf ab98 1740 4d75 e0c0
000000e0: 9ace af3f cf27 45c0 579a e93f e82a 00c1
000000f0: ee44 0040 7d58 01c0 5c2b c03f 5692 6440
00000100: 525a 993e 4e23 6440 a24a d6bd d081 94bf
00000110: 1e85 0ac1 bc13 23c1 6957 4740 8fe8 46c1
00000120: 60b8 3e40 9ba2 82c0 d8c8 ae3e 0c7c 4c40
00000130: a13d 4340 dba0 cac0 2fb1 03c0 bf62 cf40
00000140: fb6d 25c1 dc4c e33f c041 8abf e168 0c41
00000150: 5772 9940 b841 6dc1 7f70 d13d ebc6 bbbe
00000160: 5711 483e 7285 6740 fd52 35bf 3d33 9140
00000170: c4ca 2ec0 5952 78c0 b881 f93e 5143 9140
00000180: cddd a8c1 bc70 4a40 466c ebc0 a523 47c0
00000190: 64ad 1e40 7310 ecbe 416c 88be 7390 c33d
000001a0: 0432 38c1 09e7 903f 0dfd 77be 96b2 363f
000001b0: 74fb 77c1 8452 c9c0 382d b3be d646 453f
000001c0: 2913 acc0 c357 8340 bcea 2e3e 18d0 05c1
000001d0: e5c8 a840 b927 ebc0 34b1 32c1 1ac0 c0c0
000001e0: 13ae 4740 e6c6 3f3f 95c7 28bf 6402 c7bf
000001f0: 75c2 fdbf 473b b0c1 10be 2540 05eb 9640
00000200: 7934 a4c1 ab92 30c1 2be0 a8c0 24c8 c0be
00000210: 320a 813f d7ee 1441 3b31 0640 0229 1741
00000220: 41cf a63f a574 893e 9497 bbc0 539a 20c0
00000230: b5bb 5ac0 1fef 27bf 97bb cabf c015 1dc0
00000240: 7372 b040 fbce ed3f 6e84 c140 2e9d 2fc0
00000250: 718b 5ebf 925b 42bd d116 c03f 2ef4 6440
00000260: da0c 8bc0 b417 353f bc3e 1fc1 d802 94c0
00000270: aeb7 0841 6656 593f 3d6a 4ec1 99ca 04bf
00000280: 8459 9d3f 2c3b a43d 2d1b a740 c6c2 0a41
00000290: dd86 9a3d f71e ca40 7848 6ac0 c92c bfc0
000002a0: 4167 ed40 d7ac 9ac1 b560 9540 26cb a3c1
000002b0: 194d adbc b790 b13f 6eb9 56c0 66ca 8cc1
000002c0: 9d1f b93f fbd6 4ec1 4a56 80c0 baaa e140
000002d0: 8c23 d0be e83b 3740 7267 dc40 bad5 01be
000002e0: 026c 74c1 73a6 3040 a979 c240 0d7c 0741
000002f0: 5d95 1d41 15fb ec3e 4e8f e6c0 cef2 1ec0
00000300: 02bd 993f c6fc d840 19fd 42bd 3fe0 c3bf
00000310: 7eba 0dc1 b911 e7c0 35aa 4a40 619e 20c1
00000320: 7424 7440 168b 19c0 6307 3f3f 9ab9 3841
00000330: 3fad 6840 2a0d edc0 bb81 51c0 541e 2541
00000340: 9b8e 04c1 ef53 4840 9fc8 99bf cb80 f240
00000350: b73e 7b40 ba72 74c1 8594 c9be 7ead fabf
00000360: 2333 d63e 9c9c 5940 0d02 60bf c9dc f840
00000370: 9d17 26c0 683a 63c0 3523 e33e 2686 7d40
00000380: af4f 88c1 eacf 0640 8554 aec0 e57a da3e
00000390: dc3c 1340 0a3e 17bf 9c2f 9ebe 72a7 ce3e
000003a0: 0940 7dc1 8106 ee3d 2a7a 05bf 1dcb df3f
000003b0: 505e 77c1 b9d1 c6c0 b8b3 073b 19e1 7a40
000003c0: efae 80c0 8df4 a740 4e1a 053e 8c83 c3c0
000003d0: 694d 1e40 5966 cfc0 2d9e 18c1 8039 b9c0
000003e0: fbf7 ac40 0b4c dfbf d68a d7bf d9bb 90bf
000003f0: 28be debf 1f68 97c1 a266 0241 2cb7 1541

sequential_4/dense_18/MatMul f4 [16, 32]
-6.4997106 -0.34657207 -0.04350637 -0.3177846 -8.729471 -5.882078 -0.09067468 -3.4548032
0.24196897 -7.8821206 -0.34114054 0.19175155 0.2448665 -0.31441703 11.083844 0.29841846
-3.9923491 -0.12322731 0.28707787 -0.2163872 -9.897209 -7.9727297 0.97476494 12.846319
-0.085310705 -12.283974 11.076815 -4.6498036 -0.30680528 0.16050605 11.871292 0.24505568
-3.0835614 0.38689688 -0.019500963 0.09849679 -2.8172123 -3.647533 0.11218083 -2.1235197
-15.673642 0.53799146 0.051431406 -0.06355696 -11.3913145 0.4464734 7.1609373 0.18592075
0.012673352 -0.034678455 -8.167721 0.12059731 -5.049524 -3.7574487 -19.17093 7.0135303
0.1072416 -4.9890246 7.0178804 -2.3998816 -9.033518 -0.1394869 4.6312704 -14.975681
-0.45592612 4.503877 -18.519478 2.64273 -0.5558508 -0.08693719 -16.840858 -0.25667107
4.248323 5.332874 2.3819346 -18.1384 3.1026213 5.0458302 0.5038644 2.988301
-23.687038 -15.175355 3.8608198 3.3987854 -0.5188446 -0.533098 2.0490537 -0.45786536
-16.617645 -0.78903276 0.3367405 -0.2552282 1.9526472 -3.586444 0.13914688 4.3577933
-0.6484452 9.264315 -25.569958 5.2604394 -0.49578437 -0.12465153 -27.472927 -0.020796334
0.10115168 12.305462 5.761939 -24.184496 0.2694115 9.876002 -0.5849317 5.292759
-26.924606 -21.939806 0.05038623 7.7544813 -0.3439559 -0.37386253 -0.024669886 -0.43759906
-26.851053 -0.19998322 -0.026093632 -0.18394391 3.8658829 -5.904549 -0.7048138 0.18409409
-0.30339104 9.832162 -28.571003 4.386677 -0.85866606 0.0058429074 -29.207287 -0.11325016
0.2196919 13.775773 4.877524 -28.984022 0.26104137 12.076517 -0.2528525 5.821353
-36.55982 -25.437054 0.1571412 6.4585423 -0.55759585 -0.33190858 -0.016341431 -0.3201354
-29.864782 -0.38470763 -0.20050375 0.04854985 3.746041 -7.046344 -0.6572267 0.078037396
-22.940392 -0.2589494 0.014480863 0.04002072 -29.964651 -24.220343 0.057997704 -16.315022
0.0998274 2.2845783 -0.12051097 -0.009366978 -0.050833818 -0.3950205 7.275666 0.0037498586
0.59651166 0.017751835 0.059272114 0.008540482 -37.050205 -32.674526 0.8358117 7.3086896
0.13947107 -37.96144 10.059739 -18.00097 -0.120140806 -0.046193674 7.171169 0.093543604
-0.83584815 -37.58907 2.8625789 -33.73867 -0.08199986 -0.7912885 2.348163 -1.011572
0.17490725 -47.869225 -33.36333 2.7969596 0.25040892 -38.64288 -0.7564811 -33.17998
5.6848264 3.0241032 0.24002618 -35.939327 1.9426274 0.6452588 0.39694485 -0.5747717
2.551226 0.7765535 -0.7250755 -1.1050996 -24.344198 2.2137337 -0.6580886 0.35723037
-30.287527 -0.7123914 -22.706738 -0.10963972 -31.856495 -29.784422 -24.960287 -26.946909
1.2203658 -2.4390993 -0.19005702 -20.837854 0.9643232 -0.9793873 -4.0598664 -0.04564107
-17.171734 -16.72137 0.57555157 -0.41685998 -34.446217 -30.104578 3.598355 -3.284054
-28.302122 -32.09546 -3.545171 -29.24869 0.45884553 -30.562368 -4.146943 1.330269
00000000: a1fd cfc0 e571 b1be bc33 32bd aab4 a2be
00000010: eaab 0bc1 fc39 bcc0 a6b3 b9bd 7f1b 5dc0
00000020: b7c6 773e 553a fcc0 f9a9 aebe 855a 443e
00000030: 49be 7a3e 45fb a0be 6d57 3141 4eca 983e
00000040: a682 7fc0 9a5e fcbd dffb 923e 9b94 5dbe
00000050: f85a 1ec1 9a20 ffc0 328a 793f 868a 4d41
00000060: 61b7 aebd 288b 44c1 a23a 3141 31cb 94c0
00000070: 9515 9dbe b35b 243e d0f0 3d41 e0ef 7a3e
00000080: 1259 45c0 5917 c63e 7cc0 9fbc afb8 c93d
00000090: 354d 34c0 2e71 69c0 10bf e53d bfe7 07c0
000000a0: 3dc7 7ac1 cfb9 093f bda9 523d 272a 82bd
000000b0: d342 36c1 2998 e43e 6626 e540 0262 3e3e
000000c0: e4a3 4f3c ff0a 0ebd fcae 02c1 b9fb f63d
000000d0: b395 a1c0 0a7a 70c0 115e 99c1 d76e e040
000000e0: 7ca1 db3d 17a6 9fc0 7a92 e040 a997 19c0
000000f0: 4a89 10c1 a7d5 0ebe 5e33 9440 649c 6fc1
00000100: 266f e9be c31f 9040 e427 94c1 7d22 2940
00000110: 3d4c 0ebf 200c b2bd 14ba 86c1 646a 83be
00000120: 43f2 8740 e7a6 aa40 9e71 1840 711b 91c1
00000130: 5991 4640 7177 a140 42fd 003f 5340 3f40
00000140: 0e7f bdc1 41ce 72c1 ac17 7740 b385 5940
00000150: 00d3 04bf 1c79 08bf b223 0340 546d eabe
00000160: f0f0 84c1 0dfe 49bf 4069 ac3e 45ad 82be
00000170: 58f0 f93f 4c88 65c0 857c 0e3e 0b73 8b40
00000180: 8100 26bf a23a 1441 468f ccc1 8555 a840
00000190: 73d7 fdbe 4d49 ffbd 8ec8 dbc1 135d aabc
000001a0: 9d28 cf3d 2ce3 4441 ce61 b840 d979 c1c1
000001b0: 4ef0 893e 1b04 1e41 15be 15bf 485e a940
000001c0: 9865 d7c1 b984 afc1 cb61 4e3d b624 f840
000001d0: fd1a b0be e96a bfbe 8018 cabc fc0c e0be
000001e0: f5ce d6c1 67c8 4cbe 50c2 d5bc cb5b 3cbe
000001f0: a06a 7740 11f2 bcc0 ad6e 34bf 2983 3c3e
00000200: 1256 9bbe 8950 1d41 6a91 e4c1 a85f 8c40
00000210: 8ad1 5bbf dc75 bf3b 86a8 e9c1 b3ef e7bd
00000220: eaf6 603e 9169 5c41 ad14 9c40 47df e7c1
00000230: 37a7 853e 6a39 4141 e275 81be 8648 ba40
00000240: 413d 12c2 167f cbc1 9fe9 203e 61ac ce40
00000250: 9abe 0ebf ecef a9be 77de 85bc cae8 a3be
00000260: 13eb eec1 66f8 c4be db50 4dbe 35dc 463d
00000270: 23bf 6f40 a67b e1c0 0240 28bf 12d2 9f3d
00000280: ec85 b7c1 0495 84be 2441 6d3c c4ec 233d
00000290: 9bb7 efc1 43c3 c1c1 008f 6d3d 2a85 82c1
000002a0: 4f72 cc3d 8836 1240 75ce f6bd f477 19bc
000002b0: 1f37 50bd 2140 cabe 42d2 e840 30c0 753b
000002c0: fdb4 183f 4c6c 913c 51c7 723d 61ed 0b3c
000002d0: 6933 14c2 b7b2 02c2 c1f7 553f c9e0 e940
000002e0: 81d1 0e3e 84d8 17c2 b1f4 2041 fd01 90c1
000002f0: 620c f6bd 9435 3dbd 377a e540 ca93 bf3d
00000300: 25fa 55bf 355b 16c2 7e34 3740 66f4 06c2
00000310: 8bef a7bd e291 4abf 4d48 1640 317b 81bf
00000320: e31a 333e 167a 3fc2 0d74 05c2 6301 3340
00000330: 9935 803e 4f92 1ac2 bfa8 41bf 4db8 04c2
00000340: 19ea b540 e88a 4140 6cc9 753e dfc1 0fc2
00000350: 04a8 f83f ae2f 253f 5b3c cb3e 3d24 13bf
00000360: 4947 2340 36cc 463f 8c9e 39bf e773 8dbf
00000370: ebc0 c2c1 d0ad 0d40 7f78 28bf e6e6 b63e
00000380: db4c f2c1 485f 36bf 66a7 b5c1 ca8a e0bd
00000390: 1ada fec1 7f46 eec1 abae c7c1 4593 d7c1
000003a0: f234 9c3f 341a 1cc0 4f9e 42be edb3 a6c1
000003b0: e3dd 763f 20b9 7abf 6dea 81c0 21f2 3abd
000003c0: b65f 89c1 5ec5 85c1 5957 133f ac6e d5be
000003d0: edc8 09c2 2dd6 f0c1 734b 6640 f12d 52c0
000003e0: bf6a e2c1 c061 00c2 15e4 62c0 51fd e9c1
000003f0: cded ea3e bb7f f4c1 c2b3 84c0 4146 aa3f

sequential_4/dense_19/MatMul f4 [10, 16]
-30.066376 -14.461602 -1.0100551 -0.14668679 0.041295506 -43.912098 -11.834299 -8.936744
-10.8647375 -42.31114 -12.526384 -17.187016 -43.0185 -1.2741835 -1.4796871 -0.93001103
0.40436044 0.31233504 -30.541672 -57.723907 -62.94681 -1.9495698 1.7683355 -5.4776716
2.0326984 -9.696504 0.47155714 1.1355145 0.3674319 -40.00422 1.4325205 -31.309542
-10.03255 -3.187141 -10.111665 -19.375036 -21.662617 -25.700956 -0.19028558 -10.118552
-0.053769737 -30.878323 -2.5368962 -2.0545046 -19.152267 -15.9331665 -0.35790703 -10.829782
4.5171375 3.9193196 1.5996522 2.1518164 2.590529 4.8881984 -23.933058 -1.5251571
-21.46255 4.983773 4.357335 -14.51522 4.4623885 1.4114826 -1.4015086 1.5878644
4.6629806 3.8693082 -5.015465 -22.721596 -27.987717 4.8150706 1.9891673 -7.4796076
2.017662 4.7785745 4.3543935 4.1633196 4.558709 -4.4966803 1.7973187 -5.6973395
-64.07052 -27.37517 1.5056994 1.9396037 2.3715613 -51.148346 -41.175068 -8.899386
-39.770046 -46.467102 -29.760866 -26.059576 -58.49998 1.3741053 -77.05707 1.5423044
-55.75209 -32.95625 -55.91229 -71.40422 -75.64421 -46.747017 2.048869 -30.056017
2.3453555 -43.32804 -33.969955 3.059368 -56.220177 -51.258835 1.7560526 -54.334698
-0.69986814 -0.45518753 -1.6655567 -0.4211132 0.007240209 -2.968327 -1.0629507 0.7364716
-0.8706897 -3.0465405 0.37863833 -3.7954638 -2.5583625 -1.9424739 -1.5216234 -1.6159524
1.0425652 -9.3101015 1.5415305 1.7117912 2.0989194 1.4303862 -36.25127 2.5604315
-37.271492 1.6979698 -8.983346 -38.17617 0.8403213 1.2016224 -52.056095 1.4841049
3.8596468 -7.8533483 1.5856006 -0.27946267 -0.3031604 3.3966815 0.97395897 2.8404992
0.9077654 2.901253 -7.771178 3.2433143 3.1654367 1.2155076 -21.435139 1.5113475
00000000: f087 f0c1 b962 67c1 7c49 81bf 1035 16be
00000010: 7a25 293d fda5 2fc2 4a59 3dc1 e7fc 0ec1
00000020: f7d5 2dc1 9b3e 29c2 126c 48c1 027f 89c1
00000030: f212 2cc2 7218 a3bf 6366 bdbf 3415 6ebf
00000040: 5508 cf3e 61ea 9f3e 5855 f4c1 48e5 66c2
00000050: 89c9 7bc2 818b f9bf d158 e23f 1649 afc0
00000060: bb17 0240 e124 1bc1 f06f f13e 8a58 913f
00000070: 0920 bc3e 5204 20c2 d55c b73f f179 fac1
00000080: 5385 20c1 1efa 4bc0 61c9 21c1 1300 9bc1
00000090: 0a4d adc1 8f9b cdc1 39da 42be 97e5 21c1
000000a0: a83d 5cbd ce06 f7c1 825c 22c0 017d 03c0
000000b0: d837 99c1 40ee 7ec1 973f b7be c946 2dc1
000000c0: 648c 9040 22d6 7a40 67c1 cc3f 5cb7 0940
000000d0: 3acb 2540 1f6c 9c40 e776 bfc1 5938 c3bf
000000e0: 4db3 abc1 127b 9f40 4a6f 8b40 573e 68c1
000000f0: e3cb 8e40 76ab b43f a264 b3bf 243f cb3f
00000100: 2337 9540 bfa2 7740 b07e a0c0 d4c5 b5c1
00000110: d8e6 dfc1 0f15 9a40 099d fe3f f258 efc0
00000120: 6021 0140 15ea 9840 3157 8b40 ea39 8540
00000130: f2e0 9140 cee4 8fc0 8a0e e63f 9b50 b6c0
00000140: 1b24 80c2 5900 dbc1 c2ba c03f ef44 f83f
00000150: a9c7 1740 e897 4cc2 45b3 24c2 e363 0ec1
00000160: 8714 1fc2 50de 39c2 4116 eec1 037a d0c1
00000170: fbff 69c2 afe2 af3f 381d 9ac2 3b6a c53f
00000180: 2402 5fc2 33d3 03c2 2fa6 5fc2 f6ce 8ec2
00000190: d649 97c2 f2fc 3ac2 ab20 0340 b972 f0c1
000001a0: 4e1a 1640 ea4f 2dc2 3ce1 07c2 afcc 4340
000001b0: 76e1 60c2 0c09 4dc2 55c6 e03f bb56 59c2
000001c0: 8f2a 33bf 570e e9be f630 d5bf 269c d7be
000001d0: 463f ed3b 12f9 3dc0 c50e 88bf 6789 3c3f
000001e0: 85e5 5ebf 85fa 42c0 e2dc c13e e1e8 72c0
000001f0: 36bc 23c0 fca2 f8bf 8ec4 c2bf 87d7 cebf
00000200: c772 853f 2df6 14c1 df50 c53f f91b db3f
00000210: b254 0640 e516 b73f 4d01 11c2 1cde 2340
00000220: 0216 15c2 1357 d93f c9bb 0fc1 66b4 18c2
00000230: 4c1f 573f c3ce 993f 7139 50c2 26f7 bd3f
00000240: 7404 7740 a14e fbc0 f6f4 ca3f bb15 8fbe
00000250: d737 9bbe 3b63 5940 6055 793f bdca 3540
00000260: 5063 683f 21ae 3940 7dad f8c0 7692 4f40
00000270: 8496 4a40 c195 9b3f 2a7b abc1 d673 c13f
