models/deepfit_classifier_v2.tflite (tflite, 23124 bytes, 8 tensors)

sequential_1/dense_7/BiasAdd/ReadVariableOp/resource f4 [10]
0	0x402624dd	2.596
1	0xbebe4d53	-0.3716837
2	0x3f4d4363	0.8018095
3	0xc0809ab1	-4.018883
4	0xc0adda3a	-5.432889
5	0x40b2d792	5.5888147
6	0xc069d1a0	-3.6534195
7	0xbed30ad7	-0.41219208
8	0x4031f126	2.7803435
9	0xc0041126	-2.0635467

sequential_1/dense_6/BiasAdd/ReadVariableOp/resource f4 [16]
0	0xbfff69de	-1.9954183
1	0xc0445d9a	-3.068213
2	0xc0149372	-2.3214993
3	0xc01336fe	-2.3002315
4	0xc0447ead	-3.0702317
5	0xc032b799	-2.792456
6	0xc036bd18	-2.8552914
7	0xc03d6814	-2.9594774
8	0xc049f870	-3.1557884
9	0xc0517a8f	-3.2731054
10	0xc02f3e48	-2.7381763
11	0xc029ae4b	-2.651263
12	0xc0269fb8	-2.6034985
13	0xc041f736	-3.0307136
14	0xc0150e35	-2.3289921
15	0xc045bd2b	-3.089671

sequential_1/dense_5/BiasAdd/ReadVariableOp/resource f4 [32]
0	0xc04dd75d	-3.2162697
1	0xc0830164	-4.0939198
2	0xc06de5c4	-3.7171488
3	0xc07f74a9	-3.9914954
4	0xc0502488	-3.2522297
5	0xc031b8b5	-2.7768986
6	0xc0333889	-2.8003256
7	0xc07ee668	-3.982813
8	0xc080e4d9	-4.0279355
9	0xc05108aa	-3.2661538
10	0xc051ba7e	-3.2770076
11	0xc10f5de1	-8.96042
12	0xc033fea9	-2.8124182
13	0xc0625eca	-3.5370355
14	0xc0874142	-4.226716
15	0xc0761860	-3.8452377
16	0xc064696a	-3.568934
17	0xc0487563	-3.1321647
18	0xc0531167	-3.2979372
19	0xc0d858ec	-6.7608547
20	0xc07ddcb7	-3.9665964
21	0xc07c19b6	-3.9390693
22	0xc049835c	-3.1486425
23	0xc037cad6	-2.8717551
24	0xc083a895	-4.114329
25	0xc05a6070	-3.412136
26	0xc0539b7f	-3.3063657
27	0xc07b00d8	-3.9219265
28	0xc084350c	-4.1314754
29	0xc031259d	-2.7679207
30	0xc0c13aae	-6.038413
31	0xc085ab8d	-4.1771913

sequential_1/dense_4/BiasAdd/ReadVariableOp/resource f4 [64]
0	0xc071a932	-3.7759519
1	0x3f1e3ee1	0.61814696
2	0xc06fd6f8	-3.7474957
3	0x3eede378	0.46462607
4	0xc04c7fa9	-3.1952918
5	0x3fa12cf5	1.2591845
6	0xc09e0115	-4.937632
7	0xc0cb551b	-6.354139
8	0x410589b6	8.346121
9	0xc0fc2fff	-7.880859
10	0x3f902b6d	1.1263252
11	0xc09bd894	-4.8701878
12	0xbfd91827	-1.6960496
13	0xbfafa71c	-1.3722873
14	0x4105fab0	8.373703
15	0x406878ba	3.6323686
16	0xc017ba4f	-2.3707464
17	0xc0a4f5de	-5.155013
18	0x3e976c30	0.29574728
19	0x3fa30ce9	1.2738315
20	0xc1044e0b	-8.269053
21	0x3f66689e	0.90003383
22	0x410f76f8	8.966545
23	0xbfb97c72	-1.4491103
24	0xc0be6929	-5.950337
25	0xc0b7ef5a	-5.7479677
26	0xc0205556	-2.5052085
27	0xc00834a6	-2.1282134
28	0x4108b9a1	8.54532
29	0x4109297e	8.57263
30	0xc0b43aef	-5.632194
31	0x3fb64673	1.4240249
32	0xbf0432bf	-0.5163993
33	0xc0a33a41	-5.100861
34	0x4111ce51	9.11287
35	0xc00d09c9	-2.2037222
36	0x3ff8966f	1.9420909
37	0xbdf49a37	-0.11943477
38	0xc034b1f8	-2.8233624
39	0x404935de	3.1439128
40	0xc0951f7b	-4.660093
41	0x3fd7d130	1.6860714
42	0xc058321d	-3.3780587
43	0xbff466b9	-1.9093848
44	0x3fcd4eae	1.6039636
45	0xc0a941d7	-5.289287
46	0x3ffd81f7	1.9805287
47	0xbc9b9d7d	-0.018995995
48	0xc04e7e02	-3.226441
49	0xbf3f8a3b	-0.748203
50	0xc0a1409c	-5.039137
51	0x40cb49ce	6.3527594
52	0xc090c3dc	-4.5239086
53	0xbee86f24	-0.45397294
54	0x3ef5c681	0.4800301
55	0xc04645d7	-3.0980127
56	0xc0d0285e	-6.5049276
57	0xc0a3241e	-5.098159
58	0xc08fe527	-4.4967227
59	0x40ed7d1a	7.421521
60	0xbfee95cf	-1.8639468
61	0xbe7ed138	-0.24884498
62	0xc0016813	-2.0219772
63	0xc004807e	-2.0703425

sequential_1/dense_4/MatMul f4 [64, 36]
0	0xc04430f2	-3.0654874
1	0x3eede954	0.46467078
2	0xc12dba79	-10.858026
3	0xbd5acf6b	-0.053420465
4	0x41a5de46	20.733532
5	0xbeb3fe1a	-0.35154802
6	0x3f8a9c2b	1.0828909
7	0xc1d15525	-26.166574
8	0xbfcae663	-1.5851558
9	0xbf77a856	-0.96741235
10	0x409a0db2	4.814172
11	0x3fddf5de	1.7340658
12	0x40b08c83	5.5171523
13	0x408b9462	4.361863
14	0xc0aec108	-5.4610634
15	0x406c29e4	3.6900568
16	0xc10eac7b	-8.9171095
17	0x4084c9e0	4.149643
18	0xc03b2e4f	-2.9247015
19	0x404b9b97	3.1813715
20	0x3f97624d	1.1826874
21	0xc0a57960	-5.1710663
22	0xc04e3ccc	-3.2224607
23	0x407a5e73	3.9120147
24	0xc08924ff	-4.285766
25	0x3f9ff7cb	1.2497495
26	0xc0c53d60	-6.163742
27	0xbf85dc1b	-1.0457796
28	0x40838fa8	4.111286
29	0xc0935c58	-4.6050224
30	0xc0fb144c	-7.8462276
31	0x409f5b81	4.97992
32	0xbfe81263	-1.8130611
33	0xbf7089c4	-0.93960214
34	0x40deaa4d	6.9582887
35	0x3e549f98	0.20764005
36	0xc0220e2a	-2.5321145
37	0xc10667f2	-8.400377
38	0xbeb76cda	-0.35825235
39	0x40b5763b	5.6706824
40	0xc1ecf901	-29.621584
41	0xc138b54d	-11.544263
42	0xbe20ea11	-0.15714289
43	0x41d06603	26.04981
44	0xc03e3cc1	-2.9724581
45	0xc11b06f7	-9.6892
46	0x4177b7cc	15.482372
47	0xc0f5ecbd	-7.6851487
48	0x4089e0e7	4.308704
49	0xc0355cb8	-2.833784
50	0x404d0c69	3.2038825
51	0xc10a4a0e	-8.64308
52	0x3f99b143	1.2007221
53	0xc097744a	-4.7329454
54	0xc0d68dda	-6.704816
55	0x4114996c	9.2874565
56	0x4126207a	10.382929
57	0xc0616910	-3.5220375
58	0x4007097e	2.1099544
59	0x412dd772	10.865099
60	0xbf304e35	-0.68869334
61	0x3fc50908	1.5393381
62	0x41050c0c	8.315441
63	0xc1d74d80	-26.912842
64	0xbfa5c05a	-1.2949326
65	0x40bb8d95	5.861033
66	0xc18a080d	-17.253931
67	0xbfa2c38f	-1.271593
68	0xc092146d	-4.5649934
69	0xc092b59e	-4.58467
70	0x4091e83f	4.5596004
71	0x40a0a0a4	5.0196095
72	0xc1892564	-17.143257
73	0xc0f19cdd	-7.5503983
74	0xc13113ef	-11.067367
75	0xc02b0118	-2.6719418
76	0x3f07547b	0.5286328
77	0xc05ed0f2	-3.481503
78	0x412a338a	10.637583
79	0x40765663	3.8490226
80	0x41156adb	9.338588
81	0x40c4a67e	6.1453238
82	0x4050bbdc	3.261466
83	0x411ce960	9.806976
84	0x4072d569	3.7942755
85	0x4095e898	4.684643
86	0xc1320380	-11.1258545
87	0xc18d862c	-17.690514
88	0xc1101622	-9.0054035
89	0xc127b8d1	-10.482621
90	0x40faad41	7.833649
91	0xc057ffae	-3.3749804
92	0xbfd97ec8	-1.6991816
93	0xbfae2d10	-1.3607502
94	0x40f78eda	7.736188
95	0xc0aca280	-5.3948364
96	0xc1237f2c	-10.218548
97	0x406d1a23	3.7047203
98	0xc1d5009e	-26.625301
99	0xbe3385a7	-0.17531453
100	0x407c795c	3.9449072
101	0xc1b0dfdd	-22.109308
102	0x404ade00	3.1697998
103	0xbf083e48	-0.53220034
104	0x4090643c	4.5122356
105	0x40d4c38d	6.648871
106	0xbfa5cf0f	-1.2953814
107	0x40941093	4.627023
108	0xc0440720	-3.0629349
109	0x3fb0242c	1.3761039
110	0x40b0b1f3	5.5217223
111	0x4048f6d5	3.1400654
112	0x402bacd0	2.6824226
113	0xc0534460	-3.3010483
114	0xc0e216ef	-7.0652995
115	0xc0bf3792	-5.9755335
116	0x40a1fbff	5.0620112
117	0x40860e78	4.189266
118	0xbf79e80a	-0.9761969
119	0xc03ca80e	-2.9477572
120	0xc073fc99	-3.8122923
121	0xc08870ab	-4.2637534
122	0x40431a93	3.048497
123	0xc04c8d79	-3.1961348
124	0xc02970db	-2.6475132
125	0x3f5bc4a9	0.85846955
126	0xbfd71a9b	-1.6804994
127	0x40a479fe	5.1398916
128	0x409653e1	4.697739
129	0x4001dd39	2.0291274
130	0xc0bc0447	-5.875522
131	0x40c33a52	6.100869
132	0x40a93331	5.287499
133	0xc0651c11	-3.579838
134	0x413e86ed	11.907941
135	0xc1a3f84a	-20.496235
136	0xc0c0c1c2	-6.023652
137	0x412e1c22	10.881868
138	0xc18090fd	-16.070795
139	0xc0ab695e	-5.356612
140	0x401dcdf2	2.465695
141	0x40b8d0c7	5.7754855
142	0x3e0f3af3	0.13987331
143	0x40093bcf	2.1442754
144	0xc0875131	-4.228661
145	0x3fd79dfe	1.684509
146	0xc0b6b18c	-5.709173
147	0xc0705dbb	-3.7557209
148	0x4127d3a7	10.489173
149	0x40327866	2.7885985
150	0x40f91e49	7.784947
151	0xc082bd9c	-4.0856457
152	0xbff2e6a3	-1.8976635
153	0xc0aee1a9	-5.4650464
154	0x414dc8a9	12.861489
155	0x40af6b1e	5.481826
156	0xbfafc7d6	-1.373286
157	0xc0b8d092	-5.7754602
158	0xc0cc7500	-6.389282
159	0x3f8700df	1.0547141
160	0xc08d11e3	-4.4084334
161	0x40931704	4.5965595
162	0x3f889983	1.0671848
163	0x40accdd3	5.400125
164	0x3fcfed2d	1.6244255
165	0xc0c26e55	-6.0759683
166	0xc0c9348a	-6.2876635
167	0x40b67e55	5.7029214
168	0xc0280cce	-2.6257815
169	0xbff8901b	-1.9418977
170	0xc07875cc	-3.8821898
171	0xc1f1a664	-30.206245
172	0xc02137b5	-2.519025
173	0x408d268a	4.4109545
174	0xc1a4f6c7	-20.620497
175	0x40e1d688	7.057438
176	0x3f035d18	0.51313925
177	0x4005e005	2.091798
178	0x40c371e1	6.107651
179	0x3f7e0f90	0.99242496
180	0xc049c9e2	-3.152947
181	0x3fba53e6	1.4556854
182	0x409bb731	4.866112
183	0x400975cd	2.147815
184	0x3ea402ff	0.32033536
185	0xc0914071	-4.5391164
186	0xc0ecc197	-7.3986316
187	0xc03c8202	-2.945435
188	0x4086b7e7	4.209949
189	0x40aa76a2	5.3269815
190	0xbe984157	-0.2973735
191	0xc0423d69	-3.0349982
192	0xc06a11a3	-3.6573265
193	0xc0863b07	-4.1947055
194	0x40360abc	2.8444052
195	0xc050d6dc	-3.263114
196	0xc070d65b	-3.7630832
197	0x3fcb4387	1.5879983
198	0xc04d45e1	-3.20739
199	0x408ecad7	4.4622607
200	0x406aa5d4	3.6663713
201	0x40376e88	2.8661213
202	0xc0ccabe6	-6.3959837
203	0x40abbafd	5.3665757
204	0x40bcac7a	5.8960543
205	0xc0948dfe	-4.642333
206	0x41102da3	9.011142
207	0xc18d077e	-17.628658
208	0xc1047008	-8.277351
209	0x410798c5	8.474797
210	0xc14a7b16	-12.65505
211	0xc0e30aab	-7.0950522
212	0x401832ab	2.3780925
213	0x407a124a	3.9073663
214	0x3e28f414	0.16499358
215	0x3fb582f9	1.4180595
216	0x40fe2f13	7.9432464
217	0xc04c1682	-3.1888738
218	0x41926531	18.29941
219	0x41aea056	21.828289
220	0xc2389f51	-46.155582
221	0xc0fb4443	-7.8520827
222	0xc00a6444	-2.1623697
223	0x41dd99e1	27.700136
224	0x40ff8f8d	7.9862733
225	0x4157eeda	13.495813
226	0xc1806085	-16.047129
227	0xc13c8eaa	-11.78483
228	0xc103f851	-8.248124
229	0x3fc5fdcd	1.5468079
230	0x4120e263	10.05527
231	0xc089481a	-4.2900515
232	0x40ce0405	6.4379907
233	0x3f8d78d3	1.1052498
234	0x40810852	4.0322657
235	0x3f0b6366	0.54448545
236	0x4100bc3a	8.045954
237	0xc104ec27	-8.307654
238	0xc014fd3c	-2.3279562
239	0xbf856e10	-1.0424213
240	0xc175445a	-15.329187
241	0xc105f3b8	-8.372002
242	0x410cdd75	8.804067
243	0x41786d10	15.526627
244	0xc0d86637	-6.7624774
245	0xc0d83bbe	-6.7572927
246	0x419b03b9	19.376818
247	0xc168dabc	-14.553402
248	0x40d62f36	6.693263
249	0xbebb27a3	-0.36553678
250	0x40f47a3b	7.6399207
251	0x4083af5f	4.1151576
252	0x40d9b629	6.8034863
253	0x4009a035	2.1504033
254	0xc0a9471f	-5.289932
255	0xc1aa185f	-21.2619

sequential_1/dense_5/MatMul f4 [32, 64]
0	0x409dabd6	4.927226
1	0x3ed889c5	0.4229261
2	0xc01af28f	-2.4210546
3	0x4129cfa3	10.613193
4	0x3f93662c	1.1515555
5	0x40e9319a	7.287305
6	0xbf639048	-0.8889203
7	0xc14f867c	-12.970333
8	0x3fa58303	1.2930607
9	0xc1974d27	-18.912672
10	0x3f311bac	0.6918285
11	0x3f64047b	0.89069337
12	0x409e350e	4.9439764
13	0x3f37aba2	0.71746266
14	0x40747412	3.8195844
15	0xbee46a11	-0.44612172
16	0xc22736ac	-41.80339
17	0xc14c1464	-12.754978
18	0x40f9454d	7.7897096
19	0x3c816e69	0.015799718
20	0xc186dfc0	-16.859253
21	0x4112334a	9.137522
22	0x405282fe	3.2892451
23	0xc13f4257	-11.953696
24	0xc1176b84	-9.463749
25	0xc1910e7e	-18.132076
26	0x3f07b852	0.53015625
27	0x4034b014	2.823247
28	0x3fc35002	1.5258791
29	0x3fd3dfd7	1.6552685
30	0xc16970db	-14.590053
31	0x3e27cadd	0.1638598
32	0xc20e298a	-35.540565
33	0xbf072be6	-0.5280136
34	0x3f01532e	0.5051755
35	0xc0b042e0	-5.5081635
36	0x3f3afdc1	0.7304345
37	0x413a7c1b	11.655299
38	0xbfe0c0e4	-1.7558866
39	0xbfa05bd0	-1.2528019
40	0x3fd10ef0	1.6332684
41	0x3e17a6d6	0.14809737
42	0xbfdccf4c	-1.7250762
43	0x4082a277	4.082332
44	0x404c0c43	3.1882484
45	0x4040be8f	3.0116308
46	0x3f2bc235	0.6709321
47	0xc0bc4530	-5.8834457
48	0xc238d626	-46.20913
49	0xbec0f847	-0.3768942
50	0xc190f930	-18.121674
51	0x4064ce28	3.5750828
52	0xc22f3722	-43.80384
53	0x4089d945	4.307772
54	0x40526220	3.287239
55	0xc1b1a4a0	-22.205383
56	0xc0fc1c98	-7.8784904
57	0xc208c17b	-34.188946
58	0xc0373300	-2.8624878
59	0x408a743b	4.3266883
60	0xc21497bf	-37.14819
61	0xc2028549	-32.63016
62	0x3f1547b6	0.5831255
63	0xbfcdbb2f	-1.6072749
64	0x400d6193	2.2090805
65	0xc13be66d	-11.743756
66	0x40397290	2.8976173
67	0x3f570631	0.8399382
68	0x3ff1e115	1.8896815
69	0x3fa55b2e	1.2918451
70	0xc199b42e	-19.212978
71	0x401bde1f	2.4354322
72	0xc110526c	-9.020123
73	0x3e90f24f	0.28309867
74	0xc10edf22	-8.929476
75	0x400d63f1	2.209225
76	0x3fb92ffa	1.4467766
77	0x3fc905e3	1.5704921
78	0xc1139352	-9.223467
79	0xc04a3b0a	-3.1598535
80	0x400f2180	2.2364197
81	0xbe1b0cf5	-0.15141661
82	0x3f0609b1	0.5235854
83	0xc197892d	-18.94198
84	0x3e291157	0.16510521
85	0x4044e6f4	3.0765963
86	0xc0ff9160	-7.986496
87	0x405e62a1	3.4747698
88	0x3fe50b8b	1.7894148
89	0x3fbc0fde	1.4692342
90	0xc1d52cee	-26.646938
91	0x3fa5575c	1.2917285
92	0xc1127a93	-9.154925
93	0xc1082fbb	-8.511653
94	0xbec32403	-0.38113412
95	0xc1a4bc20	-20.591858
96	0x3f95c7da	1.1701615
97	0xc1c7c926	-24.973217
98	0xc11f62c7	-9.961616
99	0x3ef70c77	0.48251697
100	0xc115ca8a	-9.361948
101	0x4017b8dc	2.370658
102	0xc0a133f2	-5.037591
103	0xc0c5099a	-6.157422
104	0x4033bff7	2.8085916
105	0xc19cf411	-19.619173
106	0x3fc1018c	1.5078597
107	0x3f814cba	1.010154
108	0x3febd2e9	1.842374
109	0xbfb1f0e4	-1.3901639
110	0xc10e9843	-8.912173
111	0x409554ae	4.666587
112	0x400e1bc2	2.2204442
113	0xc1c954d8	-25.166428
114	0x3c9ac400	0.018892288
115	0xc11a5fa8	-9.648354
116	0x4011d216	2.2784476
117	0x402a6967	2.6626832
118	0x3fd7e88f	1.6867846
119	0x3f8710cb	1.0552
120	0x4004b1ea	2.073359
121	0x408851a0	4.259964
122	0xc08c6093	-4.386789
123	0xc119068a	-9.564096
124	0x408bd287	4.369449
125	0x3fe6c29d	1.8028141
126	0x3ff18b21	1.8870584
127	0xc0ab9ffb	-5.363279
128	0x3f6da33e	0.9282721
129	0xc13209c8	-11.127388
130	0x3e79e9ec	0.2440564
131	0x3f76bb88	0.963799
132	0x3f8cc13a	1.0996468
133	0x3f3cc0f4	0.73731923
134	0xc199c071	-19.218966
135	0x3dcf74df	0.10129713
136	0xc0ee36d9	-7.4441953
137	0x3c268582	0.010163667
138	0xc0e8125d	-7.2522416
139	0x3fbaf9de	1.4607503
140	0x3f770593	0.9649288
141	0x3fa7ed09	1.3119212
142	0xc0f8aabf	-7.770843
143	0xc01b3162	-2.424889
144	0x3fdaf32c	1.710546
145	0x3e874c73	0.26425514
146	0x406237dc	3.5346594
147	0xc1850cf3	-16.631323
148	0x3dfa86ca	0.1223274
149	0x4080c553	4.0240874
150	0xc0f6283a	-7.6924105
151	0x407c66c2	3.9437718
152	0x3f38a08b	0.7211997
153	0x3f49b581	0.7879258
154	0xc1dd4eda	-27.663502
155	0x3f94858f	1.1603259
156	0xc0f2574d	-7.573157
157	0xc0e6c232	-7.2112055
158	0x3b58a98e	0.0033060047
159	0xc19885c4	-19.065315
160	0x3f05235d	0.52007085
161	0xc1c1eb08	-24.239761
162	0xc1039679	-8.2242365
163	0x3ecc56e4	0.39910042
164	0xc1067666	-8.403906
165	0x3e895e10	0.26829576
166	0xc089df71	-4.3085256
167	0xc0c42128	-6.1290474
168	0x3fbadfc3	1.4599537
169	0xc19d9e43	-19.702276
170	0x3ff3c8d1	1.9045659
171	0x3f86954a	1.051431
172	0x3fbe96cf	1.4889773
173	0xbfc45dae	-1.5341089
174	0xc0d8aa7f	-6.7708125
175	0x4059a28c	3.400546
176	0x3f5eb91c	0.87001204
177	0xc1ca5113	-25.289587
178	0x3e7b5ea8	0.24547827
179	0xc0f8566a	-7.7605486
180	0x4047f0bd	3.1240685
181	0x402bb392	2.682835
182	0x40069e4d	2.103412
183	0x403a4ecb	2.9110591
184	0x3f32b8f4	0.69813466
185	0x4057094e	3.359943
186	0xc06ea5ac	-3.7288618
187	0xc0ed9cb5	-7.4253793
188	0x403e4351	2.9728587
189	0x407ed59e	3.9817882
190	0x3f5088b0	0.8145857
191	0xc09d51b0	-4.9162216
192	0x3f033d7b	0.51265687
193	0xc155a8c0	-13.353699
194	0x4099c5c5	4.805392
195	0x3f2162c5	0.63041335
196	0x3ec6cded	0.38828984
197	0xbff03f16	-1.8769252
198	0xc19b58c6	-19.418346
199	0x40ce30c9	6.443455
200	0xc12857be	-10.521421
201	0xbe82fb62	-0.25582415
202	0xc108379a	-8.513575
203	0x40b2a24e	5.5823126
204	0x40afa11c	5.4884167
205	0x3f96d7d1	1.1784612
206	0xc12558ce	-10.334181
207	0xc08b443d	-4.35208
208	0xbe18e3eb	-0.14930694
209	0xbf367534	-0.7127259
210	0xbf2ed375	-0.6829141
211	0xc1a18f89	-20.195086
212	0xbd277d4b	-0.040890973
213	0x3f88c4bb	1.0685037
214	0xc129d5df	-10.614715
215	0x3c3d35e7	0.011548496
216	0x40cfb6d8	6.49107
217	0x4094e9e7	4.6535525
218	0xc1ef9d9b	-29.951956
219	0x3e283bd9	0.1642908
220	0xc128960d	-10.5366335
221	0xc131cba0	-11.112213
222	0xbf2e8e29	-0.6818567
223	0xc1ad479c	-21.659966
224	0xbec64958	-0.38727832
225	0xc1cb4c69	-25.41231
226	0xc151fb59	-13.123864
227	0x40a800ce	5.250098
228	0xc1053647	-8.325751
229	0x400cb0de	2.198295
230	0xc088eec4	-4.279146
231	0xc1453b7c	-12.327023
232	0x40cbab16	6.3646345
233	0xc1acb5fa	-21.588856
234	0x40a27155	5.0763345
235	0x3ec8e60d	0.39238015
236	0x3e857b24	0.2607051
237	0xbf975c42	-1.182503
238	0xc0e1ff68	-7.0624275
239	0x3d285c1f	0.04110348
240	0xbeb457bc	-0.35223186
241	0xc1ee0b70	-29.755585
242	0xbf0df88b	-0.5545737
243	0xc13bc1f3	-11.734851
244	0xbe168898	-0.14700544
245	0x3f5ef992	0.87099564
246	0x3e5f0731	0.21780087
247	0xbd6865c1	-0.056737665
248	0x40dd3e5f	6.9138637
249	0xbeedf2d0	-0.46474314
250	0xc0a44465	-5.133349
251	0xc128772d	-10.529096
252	0xbe23c026	-0.15991268
253	0x3d8dc8a4	0.06923035
254	0x40b3425e	5.6018515
255	0xc0a91919	-5.2843137

sequential_1/dense_6/MatMul f4 [16, 32]
0	0x40055e6e	2.0838885
1	0xc0c20637	-6.0632586
2	0xc14ed7f8	-12.927727
3	0xc1a22287	-20.26686
4	0x3f81092e	1.0080926
5	0xc25da94b	-55.415325
6	0xc1a40666	-20.503124
7	0xc1183000	-9.511719
8	0xc2886fac	-68.21811
9	0x3f867ebd	1.0507427
10	0x3ff01481	1.8756257
11	0x3e17d4c0	0.14827251
12	0xc1885ab1	-17.044283
13	0x3fb6caa6	1.4280593
14	0xc04c38cb	-3.1909664
15	0xc28bfd81	-69.995125
16	0x3ffe6bd9	1.9876662
17	0xc25de0b7	-55.469448
18	0x3f92ca71	1.146803
19	0x3e80d11f	0.25159547
20	0xc28a1728	-69.04523
21	0xc1b4884d	-22.566553
22	0x3f8da026	1.1064498
23	0xc1e9ebd4	-29.24015
24	0xc07babfd	-3.9323723
25	0x3f4af077	0.7927317
26	0xc298750f	-76.22863
27	0xc28eaf22	-71.34206
28	0xc28f4b06	-71.64653
29	0xc22d4293	-43.315014
30	0x3eabc496	0.3354842
31	0xc0408b0f	-3.0084875
32	0xc16d56ba	-14.8336735
33	0x4003b67e	2.0580134
34	0x3ff76f6d	1.933088
35	0x3f51f4d0	0.8201418
36	0xc1aae7fe	-21.363277
37	0xbb07e525	-0.0020735946
38	0xc02792a3	-2.618325
39	0x4002e66a	2.0453134
40	0x3ddb15f8	0.106975496
41	0xc1b66938	-22.801376
42	0xc1ad9419	-21.697313
43	0x3d7d18a1	0.061791066
44	0xc04b3bfd	-3.1755364
45	0xc178873e	-15.533018
46	0x3ffa7492	1.9566824
47	0x3d55b32a	0.052172817
48	0xc1a9f957	-21.246748
49	0x3e071e7f	0.13195227
50	0xc1b82faa	-23.023273
51	0x40b57aa1	5.6712193
52	0x3daa46fa	0.08314319
53	0x3f4c397d	0.7977522
54	0xc1ad7eb3	-21.686865
55	0xc07423d5	-3.814687
56	0x3fedf9d6	1.8591869
57	0xc1b78665	-22.940622
58	0x3e92bf63	0.2866164
59	0x3de69e50	0.112606645
60	0x3e3165ec	0.17324036
61	0x3e55cfa7	0.20879994
62	0x3ec1d9ac	0.37861383
63	0x3fdf4f57	1.7446088
64	0xbf06dcf2	-0.52680886
65	0xc2218ac1	-40.3855
66	0xc2205e23	-40.09193
67	0xc2616e53	-56.35774
68	0xbfc68445	-1.5509115
69	0x3fa381b1	1.2773954
70	0xbf792c1b	-0.97332925
71	0xc231866f	-44.381283
72	0xbc9a876e	-0.018863406
73	0xbf6b34a4	-0.918772
74	0xbf35358b	-0.70784825
75	0x3d81758e	0.0632125
76	0xbf7a8f4b	-0.978749
77	0xbfc106f3	-1.5080246
78	0xc22fde62	-43.96717
79	0x3e1bc3ba	0.15211383
80	0xbf85a9d6	-1.0442455
81	0x3fbebeaf	1.4901942
82	0xbf693ba4	-0.9110663
83	0xc256a2db	-53.65904
84	0x3f8c90f8	1.0981741
85	0xc258b664	-54.178116
86	0xbf5a3477	-0.85236305
87	0xbf257661	-0.64633757
88	0xc23ccb51	-47.19855
89	0xbf8eabf9	-1.1146232
90	0x3fc94b05	1.5726019
91	0x3fbdeda3	1.4838146
92	0x3f523cce	0.8212403
93	0x3f9e4177	1.2363728
94	0xc25dfe0f	-55.498104
95	0xc2304317	-44.065517
96	0x3e35950e	0.17732641
97	0xc059abc4	-3.4011087
98	0xc03b4544	-2.9261026
99	0xc0d3e50c	-6.62171
100	0x3e8b2a23	0.27180585
101	0xc17607b1	-15.376878
102	0xc207c93c	-33.946518
103	0xc0666bbc	-3.6003256
104	0xc00a24a2	-2.158486
105	0x3e5714ef	0.2100408
106	0x3f32cc3f	0.69842905
107	0x3eb3b05f	0.35095498
108	0xc2048ac7	-33.135525
109	0x3e0ba532	0.13637236
110	0xc04d6ac3	-3.2096412
111	0xc016b613	-2.354863
112	0x3f2e7c42	0.6815835
113	0xc15cf05d	-13.808682
114	0x3f132851	0.5748339
115	0x3e41e93e	0.18936631
116	0xbffcdbb4	-1.9754548
117	0xc0d19dd0	-6.550514
118	0x3f41ec9f	0.7575168
119	0xc1efd6bb	-29.979849
120	0xc05d98ae	-3.4624438
121	0x3f520164	0.8203337
122	0xc0846721	-4.137589
123	0xc03d5c4f	-2.958759
124	0xbf6533fb	-0.8953244
125	0xc180c41f	-16.095762
126	0x3e97a009	0.29614285
127	0xc02bbf6e	-2.683559
128	0xbddb3bf2	-0.10704793
129	0xc22bc71b	-42.94444
130	0xc2337c51	-44.871403
131	0xc273a217	-60.90829
132	0x3f819191	1.0122548
133	0x3e33b80c	0.17550677
134	0xbf8b6466	-1.0890014
135	0xc246f538	-49.73947
136	0x3fa40c58	1.2816267
137	0x3ff2fc0a	1.8983166
138	0x3f963bcf	1.1737002
139	0x3fd2499e	1.6428716
140	0xbf8ed371	-1.1158277
141	0xbeb30184	-0.34962094
142	0xc241bc25	-48.433735
143	0x3f9a8453	1.2071632
144	0x3f00d5b3	0.5032608
145	0x3d176fb1	0.03697175
146	0x3f95687c	1.1672511
147	0x400e6a39	2.2252333
148	0x3f79d0e1	0.9758435
149	0xc26c589f	-59.086544
150	0x3f24343d	0.6414221
151	0xbf87d84e	-1.0612886
152	0xc240e346	-48.221947
153	0x3fad3b7e	1.353378
154	0x3d2d2627	0.042272713
155	0x3f897c2f	1.0741023
156	0x3f562cde	0.8366221
157	0x3e8a548f	0.27017638
158	0x4004c7a1	2.0746844
159	0xc23d9c9d	-47.402943
160	0xc192e7af	-18.363127
161	0xbfb87b14	-1.441256
162	0xc007794a	-2.116778
163	0x40f57765	7.6708245
164	0xc1b8a4fe	-23.080563
165	0x3de7a520	0.11310792
166	0xbf64a3ce	-0.89312446
167	0xbfaca1ca	-1.3486874
168	0x400297a0	2.0405045
169	0xc1c91767	-25.136427
170	0xc1bc5069	-23.539263
171	0x410afbe9	8.6865015
172	0xbfde5570	-1.7369823
173	0xc18ac890	-17.34793
174	0xbfc9d1d4	-1.576716
175	0x3fbd199c	1.477344
176	0xc1c035d3	-24.026281
177	0x3e847adc	0.25874984
178	0xc1c10302	-24.126469
179	0x41283915	10.513936
180	0x3fc13ad6	1.509608
181	0x4104a645	8.290593
182	0xc1ba8dbe	-23.31921
183	0xbf291854	-0.66052747
184	0xbfcdd591	-1.60808
185	0xc1d1d304	-26.228035
186	0x3e8719f2	0.26386982
187	0x3f87356d	1.0563179
188	0x3fe6715b	1.8003343
189	0x3de3326d	0.11093602
190	0x41131d44	9.194645
191	0xbfb1b7d0	-1.388422
192	0x3dc20ef8	0.09475511
193	0xc237888e	-45.883354
194	0xc235ec34	-45.480667
195	0xc278fe35	-62.24825
196	0x3f42c077	0.7607493
197	0x3e18d504	0.14925009
198	0xbfb57456	-1.4176128
199	0xc249e786	-50.476097
200	0x3fd7fb22	1.6873515
201	0x3f99dc9f	1.2020453
202	0x3fa4a5eb	1.2863134
203	0x3e628807	0.22122203
204	0xbf943fab	-1.158193
205	0x3e2fd1bf	0.17169856
206	0xc23e8ef7	-47.639614
207	0x3fa891cb	1.3169492
208	0x3fa775be	1.3082807
209	0xbd14eb10	-0.036356986
210	0x3fb4f8ca	1.4138424
211	0x3e9b8bdd	0.30380145
212	0x3fc98f11	1.5746785
213	0xc26dfbeb	-59.496014
214	0x3f97eebc	1.1869731
215	0xbf71a664	-0.94394517
216	0xc24b0499	-50.75449
217	0x3fd5bd2b	1.6698354
218	0xbdba5796	-0.09098737
219	0x3fdf366b	1.7438482
220	0x3fe40801	1.7814943
221	0x3e7911d0	0.24323201
222	0x3ef205e8	0.4727013
223	0xc23f47bd	-47.820057
224	0xc1920623	-18.252996
225	0x3fd410cd	1.6567627
226	0x3fe6d831	1.8034726
227	0x3f919978	1.137496
228	0xc1d0bb46	-26.091442
229	0x3dcfb5ca	0.101420954
230	0xc09a2d83	-4.8180556
231	0x3ff55e4a	1.91694
232	0x3ff1f244	1.8902059
233	0xc1e305a2	-28.37775
234	0xc1d3c2b6	-26.470074
235	0x3d97ac84	0.074059516
236	0xc0b2c3ac	-5.5863857
237	0xc1a516a9	-20.636065
238	0x3ff5325b	1.9155992
239	0x40058948	2.086504
240	0xc1d7c5f6	-26.97166
241	0x3dbe836f	0.09302413
242	0xc1da822c	-27.31356
243	0x3e7fe89b	0.24991076
244	0x3ff97d6a	1.9491398
245	0x3e956245	0.29176536
246	0xc1c71e11	-24.88968
247	0xc0a5eccb	-5.1851554
248	0x40031e05	2.0487072
249	0xc1ce5c76	-25.795147
250	0x3f2f36f3	0.6844322
251	0x3fd5f95e	1.6716726
252	0x3fd44499	1.6583434
253	0x3eff3fde	0.49853414
254	0x3c40472e	0.011735721
255	0x3ff6771c	1.9255099

sequential_1/dense_7/MatMul f4 [10, 16]
0	0xc280ea86	-64.45805
1	0xbfc9d458	-1.5767927
2	0xc15708b2	-13.439623
3	0xc19c4633	-19.534277
4	0xc20ebeb7	-35.686245
5	0xbedb078c	-0.42779195
6	0xc1d378ef	-26.43405
7	0xbfef12f7	-1.8677663
8	0xbff8f28a	-1.9449017
9	0xc215bc82	-37.43409
10	0xc00328a2	-2.049355
11	0xc194061f	-18.502989
12	0xc06d29a2	-3.705666
13	0xc20400fe	-33.00097
14	0xc1f1f08c	-30.242455
15	0xc1e5ceb1	-28.725924
16	0xc0888d53	-4.2672515
17	0x400c6dc3	2.1941993
18	0xc10b0027	-8.687537
19	0xc0a10de0	-5.0329437
20	0xc19ece01	-19.850588
21	0xc05fecae	-3.4988208
22	0xc18105ef	-16.127897
23	0x40018d57	2.0242517
24	0x40065e6e	2.0995135
25	0x3df19bd4	0.117973
26	0xbf7e7eb5	-0.9941209
27	0xc110cb24	-9.049595
28	0xbedff1c0	-0.43739128
29	0xc19f26c8	-19.893936
30	0x401c0881	2.438019
31	0xbe3aae81	-0.1823063
32	0xc1270e27	-10.440955
33	0x3f0290d6	0.5100225
34	0xc16193ab	-14.098552
35	0xbef3b192	-0.47596413
36	0xc1f6223b	-30.766714
37	0xbe7af554	-0.24507648
38	0xc1bc6ffa	-23.554676
39	0x3e91e6c4	0.28496373
40	0x3ebe133b	0.37124047
41	0xc119fbeb	-9.624003
42	0xbea25a1e	-0.3170938
43	0xc13f987d	-11.974729
44	0x3e2fbeb6	0.17162594
45	0xc1f22576	-30.268291
46	0xc0c77567	-6.2330813
47	0xc0c79342	-6.236726
48	0x408476e2	4.139512
49	0xc1a9e8ab	-21.238607
50	0xc15da66b	-13.853129
51	0x40907493	4.5142303
52	0x40450318	3.0783138
53	0xbecfe9e9	-0.40608147
54	0x404c7ce5	3.195123
55	0xc1d73199	-26.899218
56	0xc1d14d1c	-26.162651
57	0x405062a5	3.2560208
58	0xbe3dbe22	-0.18529561
59	0xc17c1caa	-15.756998
60	0xbe84336b	-0.2582048
61	0x40939d0b	4.6129203
62	0x409153cc	4.541479
63	0x4020feb1	2.5155451
64	0x40558c8c	3.3367033
65	0x3fc7d2ad	1.5611168
66	0x4022c284	2.5431223
67	0x406f8ff5	3.7431614
68	0x40321894	2.7827501
69	0x401d7396	2.4601798
70	0x3fe29bf8	1.7703848
71	0x3e92129b	0.2852982
72	0x3fd07564	1.6285825
73	0x4038e7a2	2.8891377
74	0x400d1c33	2.2048461
75	0x40b0e938	5.528469
76	0x402702cf	2.6095464
77	0x4030d9e2	2.7632985
78	0x4054a497	3.3225458
79	0x402ac443	2.6682289
80	0xc17ed09e	-15.925932
81	0xc2ab80dd	-85.751686
82	0xc1d4f6f6	-26.620586
83	0xc1b7f7bc	-22.995964
84	0xc23b22ec	-46.784103
85	0xc29861d3	-76.19106
86	0xc207c3db	-33.941265
87	0xc2a444fc	-82.134735
88	0xc2b9e0ac	-92.93881
89	0xc28803c8	-68.007385
90	0xc2e934cb	-116.60311
91	0xc27d6ac4	-63.354263
92	0xc322cabe	-162.79196
93	0xc225424a	-41.314735
94	0xc220a29c	-40.1588
95	0xc289f8fa	-68.98628
96	0xc0d37e50	-6.609169
97	0x400d0161	2.2032092
98	0xc17eefdd	-15.93356
99	0xc10cce6e	-8.800398
100	0xbe6ce462	-0.23133996
101	0x402bb379	2.6828291
102	0xc1a7627e	-20.923092
103	0x40044326	2.0665984
104	0x4005228e	2.080234
105	0x4040a1da	3.0098786
106	0x40243d14	2.566228
107	0xc15e2127	-13.883094
108	0x40301472	2.751248
109	0xc1c0351d	-24.025934
110	0xbf21fc0a	-0.63275206
111	0x402fa79b	2.7446048
112	0xc113ae17	-9.230002
113	0xbf165ecf	-0.58738416
114	0x3f9739a0	1.1814461
115	0xbe8de638	-0.27714705
116	0xbff72108	-1.9306955
117	0xbf2d18cc	-0.6761596
118	0xbfcefb3b	-1.617042
119	0x3e013a5c	0.12619919
120	0xbf03b484	-0.5144732
121	0xc18af51d	-17.369684
122	0xbfac107c	-1.3442531
123	0x40640b93	3.5632064
124	0xbf0b47a7	-0.5440621
125	0xbfa9dd40	-1.3270645
126	0xc120c8d7	-10.049033
127	0xc111946c	-9.098736
128	0xc182c60d	-16.346704
129	0xc206b13e	-33.673088
130	0x404f37a8	3.237772
131	0xc1776a83	-15.463504
132	0xbf748894	-0.955209
133	0xc1a12380	-20.142334
134	0xbb024008	-0.0019874591
135	0xc1b94179	-23.15697
136	0xc20fbe31	-35.935734
137	0xc254350e	-53.05181
138	0xc220323a	-40.04905
139	0x4086c543	4.21158
140	0xc25a9af8	-54.651337
141	0x3f442d74	0.76631856
142	0xc1f81f83	-31.015387
143	0xc2518311	-52.377995
144	0xc115a45c	-9.352627
145	0x3ebe384d	0.3715233
146	0x407c132a	3.9386697
147	0xc17e6e92	-15.901995
148	0x400e788a	2.2261071
149	0x4016b1b9	2.3545973
150	0x402bad28	2.6824436
151	0x40248b25	2.5709927
152	0x3ec26eed	0.37975255
153	0xc2076f81	-33.85889
154	0xc1952cab	-18.64681
155	0x40ddbc14	6.9292088
156	0xc19327e4	-18.394478
157	0x40784c57	3.8796594
158	0xc1b3f6fc	-22.495598
159	0xc220d791	-40.210514
